model/letnet-gray.pt (torch, 348725 bytes, 52 tensors)

block1.conv1.weight f4 [8, 1, 3, 3]
00000000: 6e0f 25be b289 473e f148 a7b8 8c2f babe
00000010: 3ce8 3d3e a254 003e 1ed6 9cbe c2ac 4e3e
00000020: 6ff6 f43d ffec 9fbd 3353 acbc 91de 7fbd
00000030: 9fa9 5e3e cf8b 8c3e e06f 023e cf0e 203e
00000040: b4cc 5c3e b20b c13c ef3f 023e ef2b 2d3e
00000050: 4b97 753e de4e 583e 4ceb 1abe 0eee 27be
00000060: 9c37 19be 0c97 5cbe 43de 8abd c445 043f
00000070: ba7b 573e 1117 be3d 2acc 4ebe 8f4f 093e
00000080: 9184 f9bc 10b0 ac3d 6a79 353c d438 54bd
00000090: 64fc 5dbe 3f30 cb3e 4644 073f 03ec 313c
000000a0: 03fb 9b3d c483 373e 7a89 18be 0020 fd3c
000000b0: 6055 9dbc 5204 f83d 9748 003d de00 983c
000000c0: e564 6cbc 79d2 7bbe 2c04 4a3e 75e6 e2be
000000d0: 0df8 02bf e0ba 4c38 069d 70be 6c2d cdbe
000000e0: 452f e0be aad2 df3b a678 ffbd b071 0abe
000000f0: 714a 513e 6148 9a3d c0f3 7ebb 6938 33bd
00000100: a698 843d 568d 4fbd c56b 8dbb 057d b8be
00000110: eca1 5dbe b126 d33d 9b9e 7d3e 15e6 833e
-0.16119167 0.1948612 -7.976767e-05 -0.363644 0.18545622 0.12532285 -0.30632108 0.2018309
0.11961066 -0.07808875 -0.021035766 -0.062468115 0.21744393 0.27450415 0.1273799 0.15630649
0.21562463 0.023565147 0.12719701 0.1691129 0.23983495 0.21123835 -0.15128821 -0.16399404
-0.1496262 -0.21541995 -0.06780674 0.51668954 0.21043292 0.09281743 -0.2019507 0.13409255
-0.03045872 0.08432019 0.011076311 -0.051812008 -0.2167831 0.39685246 0.5283855 0.010859492
0.07616236 0.17921358 -0.14896193 0.030899048 -0.019205749 0.12110199 0.031319227 0.018555101
-0.014428352 -0.24592008 0.19728154 -0.4431645 -0.51159745 4.881143e-05 -0.234974 -0.40073717
-0.43786064 0.006830533 -0.12474184 -0.13519931 0.20438553 0.075333364 -0.003890261 -0.04375497
0.06474428 -0.050671898 -0.0043158256 -0.36032882 -0.216438 0.10310114 0.24767534 0.25761476

block1.bn1.weight f4 [8]
00000000: 350f 8a3f 4022 623f 2777 253f 6865 673f
00000010: ccb8 5d3f 415c 833f c94b 973f 1fa5 663f
1.0785891 0.8833351 0.6463494 0.9038911 0.866101 1.0262529 1.1820003 0.90095705

block1.bn1.bias f4 [8]
00000000: 259e 853c 9674 9d3e 7671 383f 392b 313e
00000010: c1dd 3e3e 65eb 66be 1c01 81be dd20 eabb
0.01631076 0.3075301 0.7204813 0.17301644 0.1863928 -0.22550733 -0.2519616 -0.007145031

block1.bn1.running_mean f4 [8]
00000000: c4ac a5ba dab9 c73e 69e4 ddb7 21b8 b23e
00000010: 101c c43e d4f9 c5be d5c4 f5be b6a4 faba
-0.0012639989 0.3900898 -2.6451615e-05 0.34906104 0.3830266 -0.38667166 -0.48001733 -0.0019122574

block1.bn1.running_var f4 [8]
00000000: 0ef5 653b 696d 2c3d 7078 073b 99d8 0b3d
00000010: 2725 323d 9425 343d a573 863d de6c a13a
0.003508869 0.04209653 0.0020671152 0.03414211 0.043492462 0.04398115 0.06565026 0.001231577

block1.conv2.weight f4 [8, 8, 3, 3]
00000000: bb49 7b3d e14f bcbd 9120 debd bf78 703d
00000010: 28b1 a03d 518a 19bd 4bcc 773d 490c 8b3d
00000020: b68b 873d f16d 323d e52d 7e3b f0e9 e5bb
00000030: c173 7d3c 8f42 cebd 32a1 f5bd 61fe 373e
00000040: 677c abbc cb17 04bd 45a4 ccbc 0159 373c
00000050: 125e 0f3e 5a2f d53d 8e0e 713e 1c10 c83d
00000060: a1b1 3d3e eb28 d83c 77c2 303d 5b2b 9fbc
00000070: 230a b3bc 1b03 7abd 7286 69bc b857 aabd
00000080: 7452 d73c 3ec0 2d3d 98ac b9bd 4afe 983d
00000090: d654 a2bd 44e9 303d f613 6ebd fa07 ffbb
000000a0: 1468 3e3d becf 373e 4a6c 04bd 2be3 483d
000000b0: c8ca 8d3b c687 15bd 10fc 143e 2b4b 193c
000000c0: eb73 093d 4466 b43d 1447 61bb 1f3d edbd
000000d0: c909 4cbc 47a8 7c3c 6a99 973d 35b9 ce3c
000000e0: 8257 9f3d 7129 fdbd 7498 163d 1ca9 48be
000000f0: 725d 59bd 19a9 6039 b784 2bbd 5f11 87bd
00000100: 972b 783d c3db ac3d e113 f0bd 2255 23bd
00000110: dd64 503d 12a8 513b 20f5 4e3d 174d 843c
00000120: a149 be3c eecd f13d ae03 8f3e 5963 7fbd
00000130: d5b0 8a3d 7bd7 0c3e 8d1e 723d 190c c23d
00000140: fd32 2f3e affc c1bb 6e91 b93c d550 303c
00000150: cac3 86bd 1e32 fc3c ced4 0f3d 37e4 4abb
00000160: 8cad 1dbd eb48 cebd f61e 68bd b3af 0fbe
00000170: 3890 37bd 3c8c a63c 9313 f3bd 03cf 41be
00000180: d799 ac3c f9b8 f0bc 4170 02be ebeb 2e3d
00000190: fc33 2abd a47c 873d c78b b6bc 80cc ca3c
000001a0: f78b 8bbd 4791 743d bd3e 5abb ca72 373c
000001b0: 9247 ce3d b722 453d 442e e43d a42e 963c
000001c0: dfe3 adbd e794 5dbd 4d5d ac3c aece 11bd
000001d0: e01a efbb c9cc 6fbd 5aaf 8abd 07fc abbd
000001e0: af52 03bd 89d8 6e3d 7e19 3bbd 8e27 0abb
000001f0: dd8f 713d 23e9 d73d c38b 58bc a9f9 44bd
00000200: b92b 5fbe c37c 1b3d 0996 803d 1310 90bd
00000210: ab5e 563d 16c4 6e3d 80ea dd3c 64db a23c
00000220: 2e52 4ebd 7f60 23be e5d0 b03d c9e3 4fbd
00000230: c711 25be 8359 1d3d 6d53 e9bc 9d66 b3bd
00000240: fc69 80bc f5ec 853d 33d4 9e3d 1b18 423d
00000250: 08b9 193c db5d a63c 6568 05be 160f 51be
00000260: e88a e2bd 6ef6 d03d 6b50 69bd aea8 11bd
00000270: 6550 b3bd 3dae 2b3e 0dcc 8abd 4e46 9d3d
00000280: 9fb7 7a3c d4be 283e f8f1 87bd 790c 4cbd
00000290: 5cc2 e6bd 0f39 52be 1740 a9be 3626 98bd
000002a0: 6c1a 56be bf47 10be 91a4 c5bd 149b 48bd
000002b0: 7514 96bd f38e 063d a172 ec3c f6b2 9abd
000002c0: 80db 1d3d 1354 23bd 3f3a 3abd e61d 37bb
000002d0: 2060 8abc 4dc4 babd 64a7 e6bd 22ea cc3a
000002e0: 4895 ed3c 1acd 89bc 6242 a83d 7d9a 8b3d
000002f0: 317b 383d 4800 cd3d 0229 313d 3098 acbd
00000300: 1a26 0fbd 92b8 09be 3f20 c0bd d3b9 263d
00000310: 872c 8c3c 91f1 bf3b f675 ca3d 0ef5 71bd
00000320: 8364 803d ef4a 71bc 38bf d33c 7969 a13c
00000330: b002 e23c 326d d7bd 2ed8 923d 51bb 243e
00000340: 827b b33d b908 143d 818e 3e3e a574 023e
00000350: 84f1 ba3d f75d 233e 5bea e23b eb2e de3d
00000360: af01 bdbc 19cd 4c3d ad96 253c ad7b 943b
00000370: a7d5 ca3c 7504 0e3c f5fc 63bd 9c19 6ebd
00000380: e8cf 06bd b021 833d 5010 2ebd 0e57 9dbd
00000390: f2e0 0c3e 91ae 393d 0746 c33d a229 6f3d
000003a0: 4a97 023d 15a4 8dbd 68f7 e5bc 88ef 0abc
000003b0: 5194 843c 02de 3abd cd40 9fbc c34d fa3c
000003c0: 33c1 9ebd ad19 2fbe 8096 ffbd f1f8 97bb
000003d0: 383f 59bd c184 9fbd a9f2 8d3b 7753 c7bd
000003e0: 9b3f 9ebd 6881 9bbb d0b1 1ebd cda3 883c
000003f0: 4d17 523d 7342 8d3c 3768 3ebd 6d1e b83d
0.06134961 -0.09194923 -0.10846055 0.058708902 0.0784629 -0.037485424 0.060497563 0.067894526
0.066184446 0.04356188 0.003878468 -0.007016413 0.015469492 -0.10071289 -0.11993636 0.17968132
-0.020933343 -0.032249253 -0.024980674 0.011190654 0.14000729 0.10409422 0.23540708 0.097686976
0.18524791 0.026386699 0.043154206 -0.019429853 -0.02185542 -0.061038118 -0.014253246 -0.08317512
0.026284434 0.042419665 -0.09066123 0.07470377 -0.079263374 0.04319121 -0.058124505 -0.0077829333
0.046485975 0.17950341 -0.032329835 0.04904477 0.004327152 -0.036506437 0.14549279 0.0093563
0.033557814 0.08808568 -0.0034374641 -0.115839235 -0.012453505 0.01542098 0.07402308 0.025234798
0.07780363 -0.1236142 0.036766484 -0.1959576 -0.053067632 0.00021425298 -0.041874614 -0.0659511
0.060588446 0.08440354 -0.117225416 -0.03987611 0.05087744 0.0031991047 0.05052674 0.01615004
0.023228468 0.11806856 0.27932495 -0.062350605 0.06772009 0.13754074 0.059111167 0.09474964
0.17109294 -0.005920015 0.022652354 0.010761459 -0.065803126 0.030785616 0.035115056 -0.003095878
-0.038495585 -0.10072502 -0.05667015 -0.14031868 -0.044815272 0.02033054 -0.11868968 -0.18926625
0.02106945 -0.029385077 -0.12738134 0.042705458 -0.041553482 0.0661557 -0.022283448 0.024755716
-0.068138056 0.05970886 -0.0033301555 0.011196801 0.10072245 0.04812881 0.11141637 0.018332787
-0.084907286 -0.054097082 0.021040583 -0.035597496 -0.007296905 -0.058544908 -0.06771727 -0.0839768
-0.032061275 0.058311973 -0.045678608 -0.0021080705 0.05897509 0.10542514 -0.013216916 -0.048089657
-0.21794023 0.03796078 0.06278617 -0.07034316 0.052336376 0.05829247 0.027089357 0.019880004
-0.05037134 -0.15954779 0.086335935 -0.050754342 -0.16120063 0.038415443 -0.028482163 -0.08759806
-0.015675537 0.065393366 0.077553175 0.04738627 0.009382494 0.020308426 -0.13028105 -0.20415911
-0.110616505 0.10203253 -0.05696146 -0.035561256 -0.087555684 0.16765685 -0.06777201 0.07679425
0.015302568 0.16479045 -0.06637949 -0.049816582 -0.1126754 -0.20529579 -0.3305671 -0.07429163
-0.20908517 -0.14089869 -0.09650529 -0.04897602 -0.073281206 0.03285117 0.028863253 -0.07553665
0.03853941 -0.0398751 -0.045465704 -0.0027941405 -0.01689154 -0.09119473 -0.11262396 0.0015633742
0.029001847 -0.016821433 0.082157865 0.06816576 0.04503936 0.10009819 0.043252 -0.08427465
-0.034948446 -0.13449314 -0.093811505 0.04070456 0.017111076 0.0058576544 0.098857805 -0.059071593
0.06269171 -0.014727338 0.025848016 0.019703614 0.027589172 -0.10518874 0.07170139 0.1608708
0.087637916 0.03614113 0.18609048 0.12739809 0.09128097 0.15953813 0.00692491 0.10848793
-0.023072092 0.050000284 0.010106725 0.004531345 0.02476008 0.008668055 -0.05566116 -0.05812989
-0.03291312 0.0640291 -0.042496026 -0.0768262 0.13757685 0.045332495 0.09534841 0.058389314
0.03188256 -0.06916062 -0.028072074 -0.00847996 0.016184004 -0.04562188 -0.01944008 0.030554658
-0.077516936 -0.17099638 -0.124798775 -0.0046378304 -0.053038806 -0.07788993 0.004331906 -0.097327165
-0.077269755 -0.004745651 -0.038743794 0.016679669 0.051291753 0.0172436 -0.046486106 0.08990178

block1.bn2.weight f4 [8]
00000000: c103 d03e cb80 323f 4d13 883f 7797 483f
00000010: 3273 803f de5c 663f 06f7 783f 05d6 523f
0.40627864 0.6972777 1.063089 0.78356117 1.0035155 0.89985454 0.9725193 0.8235782

block1.bn2.bias f4 [8]
00000000: 0d7e a33f f0ef 523f a50d e43e 5539 3d3f
00000010: b17f 4e3f 6847 7a3e a8b1 863e 4163 603f
1.2772843 0.82397366 0.4454166 0.73915607 0.8066359 0.24441302 0.26307416 0.8765145

block1.bn2.running_mean f4 [8]
00000000: a33c 1f3f 2643 cbbe b2b6 47bf 653b 1abf
00000010: 14cc 0fbf d57b a13e fb2f 003d c2a0 023f
0.622019 -0.39699668 -0.78013146 -0.6024688 -0.56170774 0.3153979 0.031295758 0.51026547

block1.bn2.running_var f4 [8]
00000000: e61c 053e ec9c 983e b203 193f 18ae 8f3e
00000010: ee21 b43e 3c50 b93d cb39 8f3d f4d8 433f
0.12999305 0.29807222 0.59771264 0.2806251 0.35182136 0.090485066 0.06993445 0.7650292

block2.conv1.weight f4 [16, 8, 3, 3]
00000000: 8b63 3f3c 786a e33b dec7 aebb 1851 ef3c
00000010: be6f 05be 15d7 823d df52 893d 8ad3 4dbd
00000020: 85c8 f53b bb62 f63c f7a2 ba3c 3520 8dbc
00000030: 6e6f e23c 47dc d03d 51ea f8b9 00cb 0abd
00000040: c354 5e3c 9d44 58bd 27d4 ca3c 64c9 b9bd
00000050: 7430 8a3d be69 2bbb f02a 9f3d cd50 0abd
00000060: 796b c0bc e250 d43c 60f4 b7bc 1d46 a3bd
00000070: 803f b63d 8a8b 8e3d 10ef af3c 8ba6 52bd
00000080: ec9b b73d 9c49 90bd 969f 08bd 0e38 98bd
00000090: 9a7c 893c 61e2 cbbd 88ad bb3d 169c 4c3c
000000a0: f599 8dbe b0be b7bc 3a62 f5bb 16b3 c03c
000000b0: c118 2cbd 2e82 c9bb 3242 e93c dff1 603d
000000c0: d905 bd3b f579 a13d bf5f 4ebc c0ae 40bc
000000d0: c8ef 4bbd bcca 8b3d 48d8 57bd c4df 37bd
000000e0: 7a02 f5bd d7c1 83bd 5cf6 5cbe 72b0 d2bd
000000f0: 8346 79bd 6c7e 0dbe ea19 00be 4c98 f23d
00000100: 98a3 183d 0bb6 2cbe d38b 343d ce81 c6bc
00000110: fb88 82be f990 1a3e 84e4 d63d cf1b abbd
00000120: e1a8 883d 8c72 dcbd cf5b d3bd f1cc 0c3e
00000130: d2aa 8dbe 4483 06be 5ac0 f43c 2eae a53d
00000140: 4462 b0bc 17ae fa3c 7baa 893a c199 b9bc
00000150: b726 d4bc 7088 eb3c 2b59 a43c b917 82ba
00000160: 9152 2ebc f22e 49bd e774 8c3d f7e9 85bd
00000170: 0fa5 bebd 1d88 f23c 6405 bcbd fa61 1abd
00000180: 3833 5f3d 646f 37bd d129 94bd 7756 433d
00000190: 03de 56bd 91aa da3d 3f75 963c e6f8 903b
000001a0: 653b 1fbd 95c5 b0bd 890c e73d 3b5f b2bc
000001b0: 2f82 703b 3e3f 09bd a256 de3d 71d6 8ebd
000001c0: 16b7 e2bd 3453 e1bc b4d3 b2bd 3cc7 40bd
000001d0: 151b 663d 1255 423d c86b 9fbc 6b81 f5bd
000001e0: 46e9 153e b6fd d1be ebdc 9ebe 3139 cb3d
000001f0: 64b4 dabd 66ea 5bbe 5782 843d 4494 623d
00000200: cdb8 453c 8478 fe3b 77ca 003d c431 a9bd
00000210: c0fb 923d 8806 0abd 88aa 893d df49 babc
00000220: 2c91 2abc c449 7abd c74d a73d 70b4 8cbd
00000230: 77b9 883b b516 113e 40c3 3cbd 7b6a b83a
00000240: baf2 50bd 39b4 0a3e 6719 27bd 358d 933a
00000250: 49fc 5ebc 0a94 24bd 948a 05be e807 513d
00000260: a39e 17bd 34f3 6abd 259a 083c 07db 4dbc
00000270: aa81 1fbe 41d3 edbd 93be f9bd 3537 75bc
00000280: 22a0 ad3b 8505 88bb 15c2 0c3d a0ee 273b
00000290: dad7 933d ca21 173e 21a8 f03d b253 ed3d
000002a0: a9c9 983d 2ba7 b03c d8fd 193d d2d2 19bd
000002b0: e833 393c aadb e5bc ab8d 10be abca 31be
000002c0: 3779 d7bd 8053 55bd 5f38 e93d e852 c4bc
000002d0: 9eaf 85bd 0930 b6bd 5a41 4abd 3983 803d
000002e0: 267d b43d 9ce2 a43d 77cd cebc 2253 98bd
000002f0: bb9b 243d ec1d 3e3d edeb e13d 786d 89bd
00000300: 93c9 dd3c 8dc7 00bd 9416 313d 75b7 c33d
00000310: 79cf 1e3e 336e 143e 2cf2 23bb 7f4b eabc
00000320: d227 f23b 4740 61bd cd83 8abc 0c5c 94bd
00000330: 6810 24be 2301 2dbd 8649 b6bd eb46 27bb
00000340: dd19 a73d 6896 d6bd 5b4b e7bd da10 c73c
00000350: d831 91bd cfc2 073d 70b4 6cbd 56a7 efbb
00000360: 9b12 b33d 2a86 04bb 0b24 ca3c 5de8 15be
00000370: 42d4 b1be 816b 4abe b3cd a7bd d745 8dbc
00000380: 70f4 bcbb 4970 dabc cf7a 3f3c c6d8 f2bb
00000390: 60eb 073b 20fa 603d 798a a6ba c9e8 793d
000003a0: 0a42 8f3c 5508 da3c aa93 443d a453 113d
000003b0: 6ef9 863d 7731 08bd 5cd8 333e 0187 ab3c
000003c0: 3e92 813d 4846 aa3c 4cd7 4a3c 3d4e 8cbd
000003d0: dd7b 14be 0787 0cbd 7cdd 13be c677 20bc
000003e0: 932a 64bd ea2f b33d f7ff b13d 0b51 a73d
000003f0: 04b9 07bd 250f be3c f437 7fbd 05ae 3e3d
0.011681448 0.0069401823 -0.0053338846 0.029213473 -0.13030908 0.0638868 0.067052595 -0.050250567
0.0075007104 0.030076375 0.022782786 -0.017227272 0.027641024 0.101982646 -0.00047476825 -0.033885002
0.013570013 -0.05279981 0.024759365 -0.09071615 0.06747523 -0.0026155557 0.077718616 -0.033768464
-0.023488747 0.025917474 -0.022455394 -0.079723574 0.088988304 0.06960209 0.021476299 -0.05142836
0.089652866 -0.0704529 -0.033355318 -0.074325666 0.016783047 -0.09955288 0.09163958 0.012488386
-0.27656522 -0.022429794 -0.007488516 0.023522895 -0.042015795 -0.006149552 0.028473947 0.054918166
0.0057685194 0.078845896 -0.01259607 -0.011760414 -0.04978922 0.06825778 -0.052696496 -0.044891134
-0.11963363 -0.064334564 -0.21578354 -0.102875605 -0.06085826 -0.13817757 -0.12509885 0.118454546
0.03726539 -0.16866319 0.04407866 -0.024231818 -0.25495133 0.15094365 0.10492805 -0.083549134
0.06672836 -0.107640356 -0.103202455 0.13750054 -0.27669388 -0.13136011 0.029876877 0.08089863
-0.021531232 0.03060059 0.0010503078 -0.022656323 -0.025897367 0.028751582 0.02006205 -0.0009925283
-0.010639803 -0.049117036 0.06858235 -0.06538766 -0.09308826 0.02960592 -0.09180716 -0.037691094
0.054492205 -0.044783965 -0.07234538 0.04768988 -0.05245782 0.10677064 0.018366454 0.0044242023
-0.038875002 -0.08631436 0.11281688 -0.021773925 0.003669869 -0.033507578 0.10856368 -0.06974495
-0.11070077 -0.027505495 -0.087317854 -0.047065005 0.05617817 0.04744441 -0.019460574 -0.11987575
0.14639768 -0.4101388 -0.31027922 0.09923018 -0.10678938 -0.21476135 0.06470173 0.05531718
0.012067986 0.0077658314 0.031443086 -0.08261445 0.07176924 -0.033697635 0.067219794 -0.022740303
-0.010410588 -0.061105505 0.08169132 -0.06870353 0.0041724998 0.14168818 -0.046084642 0.001406982
-0.051012732 0.13545312 -0.04079571 0.0011257293 -0.013609954 -0.040180244 -0.13041145 0.05103293
-0.037016522 -0.057360843 0.008337532 -0.012564427 -0.15576807 -0.11612559 -0.12194552 -0.014966776
0.0052986303 -0.0041510486 0.03436478 0.002562441 0.07218905 0.14758983 0.11750818 0.11588229
0.074603386 0.021564087 0.0375956 -0.03755457 0.011303879 -0.028058846 -0.14116542 -0.17362468
-0.10521167 -0.052081585 0.11387705 -0.023965314 -0.06527637 -0.08895881 -0.04937873 0.06275029
0.08812933 0.08051035 -0.025244458 -0.07437731 0.04018758 0.046415254 0.110313274 -0.06710333
0.027073657 -0.031440306 0.043234423 0.09556476 0.15508832 0.14495163 -0.0025016172 -0.028600452
0.007390001 -0.05499294 -0.01690855 -0.07244119 -0.16021883 -0.042237412 -0.08900742 -0.0025524448
0.0815923 -0.104779065 -0.1129367 0.024300028 -0.07089585 0.03314477 -0.057789266 -0.007313649
0.08743783 -0.002022157 0.02467539 -0.14639421 -0.34732252 -0.19767572 -0.08193531 -0.017245216
-0.005766444 -0.02666487 0.011686995 -0.0074110953 0.002073966 0.054926038 -0.0012706063 0.061013017
0.017487545 0.026615301 0.047992386 0.035480157 0.06590544 -0.0332503 0.17563003 0.020938398
0.063267216 0.020785466 0.012380432 -0.0685086 -0.14500375 -0.03430846 -0.14439958 -0.009794181
-0.055704664 0.08749373 0.086913995 0.081697546 -0.03313543 0.02320058 -0.06230922 0.046552677

block2.bn1.weight f4 [16]
00000000: e450 6f3f 4db0 7a3f b785 593f ebc3 8f3f
00000010: 47d2 773f 0b70 653f 40a2 803f f76a 693f
00000020: 114b 4e3f 4ac1 883f 64c7 5d3f a5b8 613f
00000030: f7f9 783f a732 643f f251 8d3f 302b 853f
0.93482804 0.97925264 0.8496966 1.1231664 0.9680523 0.8962409 1.0049515 0.9117884
0.8058329 1.0683987 0.8663237 0.8817237 0.97256416 0.8913979 1.1040633 1.0403805

block2.bn1.bias f4 [16]
00000000: cfbd fb3e 04a1 cf3e 5f32 d63e 1827 223e
00000010: b376 bd3e d838 84bc 7df7 b43d c431 0c3f
00000020: c691 ea3e d211 993e 4237 b03e bb96 e53e
00000030: 1a87 2dbd 2755 8d3e 7de4 8b3e 04b9 8ebd
0.4916825 0.40552533 0.41835305 0.15835226 0.37004623 -0.016140386 0.08836267 0.54763436
0.4581434 0.29896408 0.34417158 0.4484156 -0.04236517 0.2760403 0.2732276 -0.06968883

block2.bn1.running_mean f4 [16]
00000000: 1215 56bf df65 a0bf 78b5 42bf a6ef c8bf
00000010: 8389 cebf 7b90 c93f 4f4c 083e 65f9 58bc
00000020: de43 88bd 0fba 6bbe f81f 0040 57d8 66bd
00000030: c4db 43bf 4ff5 bebf 23f2 a7bf d8f9 85bf
-0.836259 -1.2531089 -0.7605815 -1.5698135 -1.6135715 1.5747217 0.1331036 -0.013243054
-0.0665357 -0.23020194 2.0019512 -0.05635866 -0.7650721 -1.4918612 -1.3120769 -1.0466871

block2.bn1.running_var f4 [16]
00000000: eb06 f03e 0147 163f 0ba1 d63e 8351 283f
00000010: 4222 163f 7fbd fb3e 94df cf3e 8ecb 9f3e
00000020: 9271 a83e bc5c 173f 457d 563e 8b7e 663f
00000030: 710d 613f bc14 163f bb93 3e3f df53 563f
0.46880278 0.58702093 0.4191974 0.65749377 0.58646023 0.49168012 0.40600264 0.31209987
0.32899147 0.59125876 0.20946224 0.9003684 0.87911135 0.5862539 0.7444417 0.8372173

block2.conv2.weight f4 [16, 16, 3, 3]
00000000: e6e9 d13d 8915 543d 7df9 0f3d b152 9f3d
00000010: b10d 8d3d 1626 46bd 3672 013d ade5 d43d
00000020: fb0c aa3d ff44 b7ba 19a0 aa3b 5026 06be
00000030: b531 a03c aeb5 8e3d 8c97 cdbd e0a1 1d3e
00000040: bdf2 a63d f328 10bc dbdd 9fbd aecc 89bd
00000050: 08c5 2f3d 0f2a e6bb 8d11 fc3b 3098 813d
00000060: 2cde 20bc 06c5 bdbd 384c d33c 75ca 4c3d
00000070: 0fb2 07bd 1bb7 efbd 00bb 513b b054 893c
00000080: 9a0a 4e3c 8b31 b6bc f7b9 14bd a821 753d
00000090: a257 bb3d 85b5 873d 01b1 0a3d 3f35 fa3b
000000a0: 368e 083b d9ce efbd d514 a03d b4c2 c63d
000000b0: 0b59 0a3d 4104 d9bc 03cd 34bc 0bc8 423d
000000c0: 9358 0bbd 1e01 623c 8da5 033d ebea e0bc
000000d0: 5c47 27ba faa6 cd3b a51c 2fbd e3ab c63b
000000e0: 3e80 9cbc d8bc 9cbc a7c7 ebbb fe06 033d
000000f0: 9af4 e6bd 0da1 44bd 9b46 b8bc 2891 42bd
00000100: ef21 fdbc 363f f73d dbb9 91bd d381 1ebd
00000110: bd49 3fbc 536d 80bb 5386 95bd 07df b4bd
00000120: c078 06be 93de bdbd 7100 adbc e33d 923b
00000130: f199 1abd bf50 ea3c eefc 903b e613 40ba
00000140: 8011 5c3d 03b9 28be 95a4 c5bd ac20 003c
00000150: f4df 0dbd 90ce 0cbe f079 8d3d a4b3 e9bb
00000160: cd7c 11be cf65 d3bc ec75 d43c 1488 68bd
00000170: 8931 a8bb 1cdf 8bbd 8a46 cabd 6088 063d
00000180: 35e3 2d3b 5f14 5cbd c86a b63c bebc 923d
00000190: b8bd f93c 120b c83d 51c6 34bc f528 0ebe
000001a0: 6588 cb3c 4bb6 6dbd 64f2 b8bd 6903 783d
000001b0: 9753 d93c 4023 eb3c 3835 4c3d 49d8 13bc
000001c0: 2ccd a5bc 5d94 253c 19da 263d 3b0b df3b
000001d0: 57b9 733c 43b7 d93c 740c db3c 4e47 0f3d
000001e0: b720 973d b6e0 90bc 09ff 383d 4eb3 4abc
000001f0: a07f ddbd 601f 15be 672d 413d 98fa a63d
00000200: 98ab 193d 1990 453d 7ca9 f23c 570a ccbd
00000210: cc31 c23d d2b2 603e 2cce fc3d a79c 843d
00000220: 5016 c73d ede8 4fbd eaf0 b53b d164 133c
00000230: 7248 e1bc 6164 3b3d 5726 333d b68d 7abb
00000240: 1dab fd3c 5dce 76bd 9ac0 bcbb 966d 9c3c
00000250: 4d39 0a3e eae5 ec3c 7838 eebc ab49 0cbc
00000260: dfb8 82bb 8731 b53d 820b bb3d 286a 503e
00000270: 4092 75bd a54d 8abc 2ffb 91ba 3aeb 923d
00000280: 9d02 073e 751f d43d 851d 633c 3ba9 5f3d
00000290: 6598 abbd 78ad 9bbd 3235 11be edcd cdbc
000002a0: 063a 2cbd 5724 393d 5931 703d 69ac 4ebd
000002b0: 7455 b4bd d915 29bd 89a1 2ebb 3c71 0dbc
000002c0: d374 723c ba47 f63c 630b 8d3c 6515 dabc
000002d0: 2a26 193b 6503 153e 4ac7 943d 7581 913d
000002e0: 4810 8ebd 6c8c 4fbd 53b3 be3d 4a17 9d3d
000002f0: 777b 9f3d 519a d9bd 5863 87bc 036a a8bd
00000300: 0223 13bc 4379 70bd a6fb 473b b05d 96bd
00000310: 02c6 afbd 2078 0abe 670a cbbd 79fd c03b
00000320: 265c 18be 6c46 45bd 6f1f 9c3b 72e8 80bd
00000330: 77b3 19bd bb77 973a f36e ccbd 9c30 1bbc
00000340: 4d1d 42bd b80c 46bd c8bd c63b 3e6f cd3b
00000350: 94cb af3b 2739 49bd 2d4f 1fbd 9154 393d
00000360: 50e9 903a 11e3 8bbd 29b5 e13c b6af 783a
00000370: 14a1 26bd 4231 893b 308c 91bb ef25 a7bc
00000380: 48ac c7bd a688 583d bd45 c8b8 9226 ac3d
00000390: f7cf 373d cb2b 8abd 6c66 843c 4238 1a3e
000003a0: e5e9 063e d5c8 633d e191 74bd 2896 a7bd
000003b0: ae1d 293c 437e 54bd 8b3b 603d 7754 6fbb
000003c0: 7cd6 293d 80c6 323d 60dc 4b3c 879e 15bc
000003d0: 2442 713d e30b 2abb 6788 86bb 3fcc 863d
000003e0: 8a11 babb 2f41 27bd c05c d5ba 9494 89bd
000003f0: c198 963d 3362 833d dbaa ac3d a359 d33c
0.10249691 0.05177835 0.03515004 0.07779444 0.06887377 -0.048376165 0.03160306 0.1039537
0.08303257 -0.0013982354 0.0052070734 -0.13100553 0.019554952 0.069682464 -0.10038671 0.15393782
0.081517674 -0.008798826 -0.078059874 -0.06728493 0.042912513 -0.0070240567 0.007692522 0.063278556
-0.009818595 -0.09266095 0.02579318 0.049997766 -0.033128794 -0.117048465 0.003200233 0.016764015
0.01257577 -0.02224042 -0.036310162 0.05984655 0.09147574 0.06626419 0.03386021 0.007635742
0.0020836717 -0.11709375 0.078164734 0.097051054 0.033776324 -0.026491286 -0.011035207 0.047554057
-0.034020018 0.013794212 0.032140303 -0.027455768 -0.0006381178 0.0062760087 -0.042751927 0.006062971
-0.01910412 -0.019133016 -0.0071954313 0.03198909 -0.11277123 -0.048005152 -0.022494605 -0.047501713
-0.03089997 0.120726034 -0.07115527 -0.03869803 -0.011675295 -0.0039192825 -0.07301011 -0.088316016
-0.13132 -0.09270968 -0.021118375 0.004462944 -0.037744466 0.028602956 0.004424683 -0.0007327184
0.053727627 -0.16476826 -0.09650532 0.00782029 -0.034637406 -0.13750672 0.06908023 -0.0071320105
-0.14207764 -0.025805382 0.025935136 -0.0567704 -0.005132858 -0.06829664 -0.098767355 0.0328449
0.002653313 -0.053730365 0.022267714 0.07164906 0.030485973 0.097677365 -0.01103361 -0.13882811
0.024845311 -0.058035176 -0.09030607 0.060550127 0.026529117 0.028703332 0.04985544 -0.009023734
-0.020239435 0.010106173 0.040735338 0.0068067587 0.014875731 0.026576644 0.026739337 0.03498011
0.07379287 -0.017685276 0.045165095 -0.012371851 -0.10815358 -0.1456275 0.04716244 0.08153266
0.03751716 0.048233125 0.029621832 -0.0996291 0.09482154 0.21943215 0.12344012 0.064751916
0.09721053 -0.050759245 0.005552401 0.0089962045 -0.027500365 0.045750026 0.043737736 -0.003823144
0.030965382 -0.060255397 -0.0057602646 0.019095223 0.13498421 0.028918225 -0.02907966 -0.008562486
-0.0039893235 0.08847337 0.09133054 0.20352995 -0.059953928 -0.016882727 -0.0011137481 0.07173772
0.1318459 0.103575625 0.0138620185 0.05460475 -0.08378676 -0.07601446 -0.14180449 -0.025122607
-0.042047523 0.045200672 0.05864081 -0.050457392 -0.088053614 -0.0412806 -0.0026646575 -0.008632954
0.014798361 0.030063499 0.017217344 -0.02662153 0.0023368695 0.14552076 0.07264574 0.0710477
-0.06936699 -0.050671026 0.09311547 0.07670458 0.07787221 -0.10625137 -0.016526863 -0.08223345
-0.0089805145 -0.058709394 0.0030514984 -0.07342088 -0.08582689 -0.13522387 -0.099140935 0.0058895913
-0.14878902 -0.048162863 0.0047644894 -0.062943354 -0.037524667 0.0011556068 -0.099820994 -0.009472039
-0.047391225 -0.048351973 0.006065104 0.0062693646 0.0053648446 -0.04912677 -0.038893867 0.045246664
0.0011055861 -0.06830419 0.027552204 0.0009486632 -0.04068096 0.00418678 -0.0044417605 -0.02040383
-0.09749657 0.052864693 -9.549733e-05 0.08405794 0.044876065 -0.06746634 0.01616212 0.15060523
0.13175161 0.05561145 -0.059709433 -0.08182937 0.010322018 -0.051878225 0.054744285 -0.003651885
0.041464314 0.043646336 0.012442678 -0.009132034 0.058900967 -0.0025947026 -0.004105616 0.065819256
-0.0056783604 -0.04083365 -0.0016278252 -0.06717792 0.07353354 0.064152144 0.084310256 0.025799578

block2.bn2.weight f4 [16]
00000000: c27f 693f 7aa3 4c3f 07f7 543f 8ad3 4f3f
00000010: df8f 773f cdc0 633f dcee 593f 313c 553f
00000020: affb 6a3f c00d 603f 060e 533f 46a2 603f
00000030: 8626 713f c744 543f 346e 523f ea44 503f
0.9121057 0.79936945 0.83189434 0.8118216 0.96703905 0.88966066 0.85130095 0.8329497
0.9179029 0.8752098 0.82443273 0.8774761 0.9419941 0.82917446 0.82199407 0.81355155

block2.bn2.bias f4 [16]
00000000: 1ee4 923e e7e0 193f 6a8a b33e 252d c53e
00000010: 716c a83e 61e6 483e 1c74 8e3e b924 c73e
00000020: ccbc 0e3e dd42 0a3e 44e5 843e 08e6 6e3e
00000030: 4312 7c3e b4ee 8b3e 9334 943e 7272 5c3e
0.28689665 0.601088 0.3506654 0.38511005 0.32895234 0.19619133 0.2782296 0.38895205
0.13939208 0.13502069 0.25956166 0.23329937 0.24616341 0.27330554 0.2894636 0.21528032

block2.bn2.running_mean f4 [16]
00000000: 3019 d93d 6396 453f 3751 a2bf 6aca c6be
00000010: 76e6 3dbf 6562 d93c 9224 7f3e 05ac 67bf
00000020: 33c8 13bf babd 833e 2ffd ffbe 2e0e 3cbf
00000030: 3dd0 2abd f132 22be 9dbd ab3f e858 5cbf
0.10600507 0.77182597 -1.2681035 -0.38826305 -0.7417978 0.026536176 0.24916294 -0.90496856
-0.57727355 0.25730687 -0.4999785 -0.73459136 -0.041702498 -0.15839745 1.341724 -0.8607316

block2.bn2.running_var f4 [16]
00000000: cdf1 db3e 8a99 543f baa7 8a3e 0149 c93e
00000010: 7a68 043f 64a4 e33e 711f 893e 0cee 863e
00000020: 5fd1 223f d6df 2b3f eb4a b43e 98cb d43e
00000030: d596 0b3f b9a5 ea3e f794 283f 2d4b 823e
0.42957917 0.8304678 0.2708109 0.3931351 0.5172192 0.44461358 0.267818 0.2635349
0.63600725 0.6713842 0.35213408 0.4156158 0.54527026 0.4582956 0.658523 0.2544798

block2.downsample.weight f4 [16, 8, 1, 1]
00000000: 3fa1 773e 0d89 de3d 9df0 4f3e 36df 983d
00000010: b058 5f3e 739a 203e b3d7 c43d c057 423e
00000020: c400 133e e066 36bd b914 793c 4a27 963e
00000030: d579 d13e 2556 e0bd b5e6 efbd 9cab 333e
00000040: 1d2c cf3d 4903 47bd 1599 b6bd c8f7 ea3e
00000050: 0844 a33e 0de2 1e3e 058f 093e 375c 85bd
00000060: 45e1 74bd 19fe 403e 9b01 883e 77d7 f33d
00000070: 0693 d73d b08a 083e d88a 8dbc 474a 823d
00000080: 5de7 833e 861b d83d 003d b93d 1391 303e
00000090: 1075 3e3e 634f 063e 5e2f 09be 3242 b53d
000000a0: da19 d63d 2c91 1dbd 6a4d 563d 1c6e 633e
000000b0: bc08 a53e 35b3 99bc 79e5 ad3d 1601 e53d
000000c0: a2cb 0e3e d81f cdbd c112 903b a52f 7b3e
000000d0: 756d c53e 4e40 603e 1a14 493e e438 f93d
000000e0: a453 bf3e 8b1e 1abc 2a2a 21be e50c a03d
000000f0: 55c9 923e 7f77 3c3d 4451 e63d cf08 de3e
00000100: 585a 8b3e 8087 94bd 6547 bfbd 7096 843c
00000110: c311 8b3e 55f2 f73d eede 003e a15a 3c3e
00000120: ee7c cc3d ae53 b13d 7015 e63c 63a7 743e
00000130: 4b1d 9e3d 0c80 9a3e 4790 273e 139d 713d
00000140: 4124 753e a203 a23d 729f 14bb bb0a 523e
00000150: 2509 333e a9fd 803e 8203 6c3e f351 b53e
00000160: 5a16 843e be8a b43d f3cd 4b3d 27dc 073e
00000170: bdec 1d3e 4e4c e93d 2662 4f3e 4dfd 8a3e
00000180: 5ae8 963e dc42 eebb 6a56 6dbd ff33 453d
00000190: e3dd d63d 73d2 bebc b56f 9d3d 3fdb b83d
000001a0: a1a6 2b3e e4d5 74bd feb3 a8bc e5ca 4e3e
000001b0: 38c7 393e 8e9c 693e f728 e43d a174 b73c
000001c0: 7730 8d3c e7ee 683d d693 3e3e 5405 7f3e
000001d0: c59d 4a3d 19a4 c13c c627 253e 1271 383e
000001e0: 93fd 3f3d ebba 083d 988f 87bd 8e63 503e
000001f0: 4ab8 0a3e a759 c53c 1cb7 0e3e 39da 5c3e
0.24182604 0.10865984 0.2030663 0.07464449 0.21811175 0.15683918 0.09611454 0.18978786
0.14355761 -0.044531703 0.015202695 0.2932685 0.40913263 -0.10953931 -0.11713926 0.17545933
0.10115836 -0.048587117 -0.08915917 0.45892167 0.3188784 0.15515919 0.13433464 -0.06511729
-0.059785146 0.1884693 0.26563725 0.11906331 0.10526089 0.13334155 -0.01727812 0.063618235
0.25762454 0.10552125 0.09044838 0.17242841 0.18599343 0.13116221 -0.13396975 0.088505164
0.104541495 -0.038468525 0.05231992 0.22209972 0.32233226 -0.01876221 0.08491034 0.11181848
0.13944867 -0.10015839 0.004396767 0.24529894 0.38560072 0.2189953 0.19636574 0.12169054
0.373685 -0.009406696 -0.1573874 0.078149594 0.2866923 0.046012398 0.11245969 0.43366095
0.27217364 -0.07252407 -0.09339789 0.016185015 0.2716199 0.12106768 0.12585041 0.18393947
0.09984766 0.08658539 0.028086394 0.23891978 0.07720431 0.30175817 0.16363631 0.05898769
0.23939611 0.07910849 -0.0022678045 0.20511906 0.17483957 0.25193527 0.23048213 0.35414085
0.25798303 0.088155255 0.049756955 0.13267575 0.1542234 0.11391507 0.20252284 0.27146378
0.29474145 -0.007271154 -0.05794374 0.04814529 0.1049154 -0.02329371 0.07687322 0.09026193
0.16762783 -0.059774294 -0.02059364 0.20194586 0.18142402 0.22813627 0.11140626 0.02239448
0.017235024 0.05686846 0.18611082 0.24904376 0.049466867 0.023637818 0.16128454 0.18011883
0.046872687 0.033381384 -0.06619185 0.20350477 0.13546863 0.024090601 0.13937038 0.2156762

block2.downsample.bias f4 [16]
00000000: ee25 0abb b795 2a3f 51c0 733d 1fc4 c13e
00000010: 4e52 7c3e 5544 c13e 2258 5e3d b28d c93e
00000020: 11a5 a0bc 8f90 883e 147e 8b3d b34d 153f
00000030: c532 a03e ecfb 893e 92a2 143f c9b6 083f
-0.0021079737 0.66634697 0.05950958 0.3784494 0.24640772 0.37747446 0.05428327 0.39365917
-0.01960996 0.2667279 0.06811157 0.58321685 0.31288734 0.26950014 0.5806056 0.5340391

block3.conv1.weight f4 [32, 16, 3, 3]
00000000: d3d5 9439 8525 5f3d 41c8 50bc 8f9d 07bc
00000010: 7ec6 833d 3b04 583c dd3c 493b 88f3 b43b
00000020: 7997 663c 3847 95bd f5c2 ab3b 04ff 8bbc
00000030: 7ccc 83bd a47b 6bbc 9296 81bd fc71 dbbc
00000040: 6ce9 813a 30d5 e6bd aea2 83bd f6b2 dbbd
00000050: eaf3 5dbd ec23 1dbe e5c0 56bd 974e 4dbc
00000060: 4706 d3bc 63ab b1bc 7023 81bd 3b1e 4d3e
00000070: 72b7 693e 161a 833d d49c d8bc 98b3 2b3e
00000080: 0795 e63d 6963 593d e5a6 693c ef60 5a3d
00000090: 688c b03d 56f8 3fbd 3fff 95bc b0c2 2ebc
000000a0: eee1 ec3c faa9 bbbd 7969 4f3c 5710 bb3b
000000b0: 2ca9 08bc 5df8 9f3c bd96 fa3c 1388 4abd
000000c0: 75da 0e3d 8870 403d fe43 403b afdf 9fbc
000000d0: 7e70 83bc 6574 9dbc c1bf 60bd 00f6 0fbd
000000e0: 0274 6bbd e988 5fbd 89e0 9cbd 7397 21bd
000000f0: e71a e1bb 5c75 bbbc 98cc 323b cfe8 f5bc
00000100: 8ab8 d9bd aba0 81bd 14d6 c1bc 6e3c 3cbd
00000110: 962e e1bd d89f d5bc 341d ad3c 1f32 97bd
00000120: d450 89bd 4c59 ecbd 5c88 03bd 58d8 b2bc
00000130: cdcc 89bd bc54 18bd ccee 19bd f4c7 95bd
00000140: fb07 7bbd 6ad8 c4bc 6418 54bb 125d 7f3d
00000150: f0d1 693d 0baf 18bd a623 93bc 216b c03c
00000160: 5a8a 683d f2f8 763d f9e0 0cbd 6f20 2abd
00000170: 5d57 1abd cb83 27bc 81af d63d 1c92 80bc
00000180: a84d 5a3c a7be 2ebd 20c1 573d e0a5 28bc
00000190: 1bb2 f0bd b79c 94bd 2c8f 34bd 5ebb 28bd
000001a0: 0fe9 f3bd 60dc 50bd aa12 54bc 9b33 8ebd
000001b0: 17d4 b83d 2968 3ebd aea8 b9bd 2597 183a
000001c0: 607e 803d 2418 b23c 9f26 d1bc ad58 40bc
000001d0: 8634 f8bc f72b 15be 61a1 f1bd 1aac 43bd
000001e0: dced 89bd 7636 2cbe f211 39bd f3a5 5bbd
000001f0: 1691 e1bc dd2d 95bd 1049 8abc 498e 6b3d
00000200: 6cb0 8fbd 82db d6bc f36a 1e3b 677f 373d
00000210: 13a1 4abd a7b5 91bc 9734 913c 466b 0e3e
00000220: 05a4 8d3d 222d 3a3d f38f 543d 7f5f 303e
00000230: 3499 ab3c d92b 7e3b 79bc a537 1f76 cd3d
00000240: 20a8 4fbc 854a 473d f812 a73c 5d37 ca3b
00000250: cdef 433e dd06 ea3d 0c65 00bd be00 b2bc
00000260: d4f9 5aba 80e9 40bc 62af bb3d 3d7d 91bd
00000270: dedd ad3d 4c86 a83e 38f9 843d 4639 4ebd
00000280: 4961 993b 9da9 b2bd aa66 183c 94c4 c33d
00000290: 9ad2 7d3d c13f 273d 67be 38bb 2ca2 0b3d
000002a0: d511 303c 67c3 ce3d 5d44 9cbc 9911 98bd
000002b0: 875e aabc b80d 04bd 8688 8cbc dfc9 c8bc
000002c0: 05df babd e0dc 4d3b d960 df3b a6d3 5fbc
000002d0: 6678 8d3d 5828 773d 495c 5b3d bf37 cd3d
000002e0: e075 2a3e 8dc4 f03d 64e9 433d 5ffb 113d
000002f0: 103c 033c 90f5 723d e89d 29bd 2d6a b33c
00000300: 650b c73c a7ff e63d 6dc2 b83d 0884 ff3b
00000310: 12c9 a03d 6103 433d 3770 ec3c 6da2 fb3d
00000320: 0247 1a3d 769c ba3d 2c4b 823d 0f43 d6bc
00000330: dd17 323b 0dcc 443d 59c4 cd3c 63fd 333d
00000340: c63a 8cbc 6336 d33c a0c8 a3bb 2428 61bd
00000350: b5d7 d23b a416 f8bb aac8 ea3d fa2f b73c
00000360: 75b2 e5bc 89b6 80bc ae2c f53c 9c2c d13b
00000370: 69fe a73c ebf5 af3c b073 263c 8eaf d3bc
00000380: 9645 283d a098 8ebd f164 bbbd 1fd2 b5bd
00000390: a653 963b f23f 36be 8b28 d3bc 0a6f 02bd
000003a0: 0ef5 afbd 79bc d8bd 8c2c ce3c 7485 2ebb
000003b0: a6e2 293c 58c8 833d 1cd0 c2bd e160 a3bb
000003c0: 3dac b93c 5f22 30bd 9eae f93c 6bd8 8c3b
000003d0: b031 0cbd 79c4 943c 029e 5dbd 8839 7dbd
000003e0: a51a 53bc 99f1 acbb 5de0 273d aeec e43b
000003f0: 7a09 6b3c eaf1 b4bd 330f 99bd 905b 3cbd
0.0002838807 0.05447914 -0.012743057 -0.008277311 0.06434344 0.013184602 0.0030706443 0.0055221952
0.0140742 -0.072889745 0.0052417465 -0.017089374 -0.06435487 -0.01437274 -0.06327547 -0.02678775
0.0009911484 -0.11271131 -0.06427513 -0.107274935 -0.054187693 -0.15345734 -0.052430052 -0.012530944
-0.02575983 -0.021688169 -0.06305587 0.20031063 0.22823885 0.0640146 -0.026441969 0.16767728
0.112588935 0.05307332 0.014260982 0.0533151 0.0862053 -0.04686769 -0.018310187 -0.010666534
0.028916325 -0.0916328 0.012659424 0.005708735 -0.008341115 0.019527609 0.030589456 -0.049446177
0.034876306 0.04698232 0.0029337402 -0.01951584 -0.016044851 -0.01922054 -0.05487037 -0.035146713
-0.05748368 -0.054573927 -0.07660014 -0.039451074 -0.006869662 -0.02288311 0.0027282592 -0.030018238
-0.10630901 -0.06329473 -0.02366165 -0.045956068 -0.10995214 -0.026077196 0.02113209 -0.07382607
-0.0670487 -0.115404695 -0.032112464 -0.021831676 -0.06728516 -0.037190184 -0.03758125 -0.07313529
-0.061286908 -0.024028976 -0.003236317 0.06234462 0.057084978 -0.03727631 -0.017961334 0.023488583
0.056772567 0.060296007 -0.03439424 -0.041534837 -0.037680972 -0.010224293 0.104826935 -0.01569467
0.013324179 -0.04266229 0.052674413 -0.010293454 -0.11752721 -0.072564535 -0.04408185 -0.041194312
-0.11909687 -0.050991416 -0.012943903 -0.06943437 0.09024828 -0.046486054 -0.09065376 0.0005820862
0.06274104 0.021740027 -0.025531111 -0.011739892 -0.030298483 -0.14567553 -0.11798359 -0.04777155
-0.06734821 -0.1681765 -0.04518313 -0.05362506 -0.027535003 -0.07284138 -0.016880542 0.05750874
-0.07016072 -0.026227716 0.0024172633 0.044799235 -0.04947002 -0.017786814 0.017725272 0.13908109
0.0691605 0.0454532 0.051895093 0.17223929 0.020947076 0.003878346 1.9757297e-05 0.100322954
-0.0126743615 0.04865505 0.020394787 0.0061711506 0.19134445 0.1142709 -0.031346366 -0.02172887
-0.00083532673 -0.011774421 0.09164311 -0.071039654 0.084895834 0.3291496 0.06492847 -0.05034759
0.0046807867 -0.087237574 0.009301821 0.09558979 0.061968423 0.040832285 -0.002818966 0.034090206
0.010746439 0.10095864 -0.019075567 -0.074252315 -0.020797027 -0.032239646 -0.017154943 -0.024510322
-0.09124569 0.003141217 0.006816965 -0.013661301 0.0690773 0.06034121 0.053554807 0.10020398
0.16646528 0.11756239 0.04783 0.035640117 0.0080099255 0.059316218 -0.041410357 0.021901214
0.024297426 0.112792306 0.09021459 0.007797722 0.07850851 0.047610644 0.028862102 0.1228684
0.037665375 0.09111874 0.06361994 -0.026155023 0.0027174868 0.04804616 0.02511804 0.04394282
-0.01711787 0.02578277 -0.0049982816 -0.05496992 0.0064344057 -0.0075710583 0.11464055 0.022361744
-0.028039197 -0.01571204 0.029928531 0.0063834917 0.020507054 0.021479568 0.010159418 -0.025840547
0.041081987 -0.06962705 -0.091501124 -0.08877968 0.0045876084 -0.1779783 -0.025776168 -0.031844176
-0.08591662 -0.10582823 0.025167726 -0.0026629837 0.010368979 0.06434697 -0.0951235 -0.004985914
0.022665137 -0.04300153 0.030478772 0.00429826 -0.034227073 0.018160092 -0.054105766 -0.061822444
-0.0128847705 -0.005277824 0.040985454 0.006986222 0.014345521 -0.08835204 -0.07473602 -0.04598576

block3.bn1.weight f4 [32]
00000000: d4c3 7a3f 15f0 863f 2b4e 8a3f 6254 633f
00000010: c515 5b3f eee0 753f 743a 6b3f 32a7 743f
00000020: 8fca 8f3f 08c3 6e3f 575a 703f e03e 653f
00000030: e4ac 773f a22e 5b3f 3c75 653f 33aa 7a3f
00000040: f7d0 863f 85ee 613f 1314 723f 8e5e 7a3f
00000050: e361 743f 66f8 683f 68ed 7b3f 253c 2d3f
00000060: a269 813f b66d 623f f961 653f d086 643f
00000070: b61d 643f fecd 653f 944b 853f 31f2 5b3f
0.9795506 1.0542017 1.0805105 0.8880063 0.8558009 0.9604634 0.9188607 0.9556762
1.1233691 0.93266344 0.9388785 0.89549065 0.96748185 0.8561803 0.8963201 0.97915953
1.0532521 0.88254577 0.9456188 0.9780053 0.95461863 0.91004026 0.9840913 0.676699
1.0110362 0.88448656 0.8960262 0.8926821 0.89107835 0.89767444 1.041369 0.8591643

block3.bn1.bias f4 [32]
00000000: 6d18 ac3e 8b3f ca3d 1cc5 c43e 1132 e93e
00000010: fc57 e43e af1a 013f 7f78 be3e 3b1e 763e
00000020: 35d6 a93e f156 d33e 0933 cd3e e683 9f3e
00000030: 24d5 943e 4df0 0f3f 2b0a b93e 3305 9b3e
00000040: e658 423d 368a 4fbd c061 083e 500b 663e
00000050: c08c d13e 4bb3 a53e e30a a13e ccde 803f
00000060: c989 b03d 499d 0d3f a466 de3e f171 173f
00000070: dd7d 963e 2133 063f 2210 9c3e 94f1 2d3f
0.33612385 0.09875401 0.38431633 0.4554601 0.44598377 0.5043134 0.37201306 0.2403497
0.3317124 0.4127727 0.40078 0.31155318 0.29068863 0.56226045 0.3614057 0.30277404
0.04744806 -0.050668918 0.13318539 0.22465253 0.40927696 0.32363352 0.31453618 1.0067992
0.086200304 0.55318123 0.43437684 0.59158236 0.293929 0.52421767 0.30481058 0.67946744

block3.bn1.running_mean f4 [32]
00000000: ea50 89c0 5bcf 863f b295 b2bf 2dca 2e40
00000010: 3ead da3f e50d d83f 35b0 173d d2a9 d8bf
00000020: b614 a540 2de6 1fc0 caf2 3dc0 4f09 61c0
00000030: d36f fc3f 10f7 95bf 71de 343b 7cd4 833e
00000040: e8a2 d540 f1b7 4abf 6ef0 3cc0 d94f 1e3d
00000050: 0f28 a5bf 3632 ac3e 07f8 3abf 2b8e 9c3b
00000060: fd8f 603e d265 8dc0 1a26 47c0 4893 263e
00000070: 4816 bbbf 9074 85bf d58e 99c0 b566 a1bf
-4.291127 1.053203 -1.3951933 2.7310898 1.7084119 1.687924 0.03703328 -1.6926825
5.158778 -2.4984238 -2.9679437 -3.5161932 1.9721626 -1.1716022 0.0027598406 0.2574805
6.676136 -0.7918692 -2.9521747 0.038650367 -1.290285 0.33632058 -0.7303471 0.00477769
0.21929927 -4.418679 -3.1117005 0.16267121 -1.4616175 -1.0426197 -4.7986856 -1.2609469

block3.bn1.running_var f4 [32]
00000000: 15ab a63f 5572 a33f 2eaf b53f 02c3 6e3f
00000010: cecb 893f f7de 9c3f 8363 983f 4d18 973f
00000020: 4a51 1d40 699a 4f3f 502a c53f ee4e b03f
00000030: b4a3 9c3f c727 5f3f 4a26 5f3f 19b2 7c3f
00000040: 357d 3440 66d3 493f 77a0 853f bf35 873f
00000050: c16d 993f 34f2 733f b9e6 c73f 9ac4 1e3f
00000060: 0c77 313f 91b4 373f 462e 773f 332f 8a3f
00000070: 5d77 513f 0c7a 983f 9fe9 2440 4c85 843f
1.302096 1.2769266 1.4194086 0.9326631 1.0765321 1.2255543 1.1905369 1.1804291
2.4580865 0.81094986 1.5403538 1.3774087 1.2237458 0.8717007 0.871678 0.98709255
2.820142 0.78838193 1.0439595 1.0563277 1.1986619 0.9529145 1.5617286 0.6201874
0.69322276 0.717599 0.9655498 1.0795654 0.8182276 1.1912246 2.576759 1.0353179

block3.conv2.weight f4 [32, 32, 3, 3]
00000000: a0b8 ee3d 0820 123e 1aa3 78bc 5752 b93a
00000010: 78d5 943d 1cdd 2a3c 9f50 26bd 8349 963c
00000020: 06c5 cc3d ba66 d93c 5778 be3c 288e b53d
00000030: 4f80 46bd c5c9 ccbb ceb6 953c db8e ad3c
00000040: 9a42 3fbd f12a be39 b241 d8bd 34c9 ad3c
00000050: ce28 343e 96de babd 1a72 8bbd 41fb f03d
00000060: 4c8a 283d 439f 18be c8df 21be 3c45 4a3d
00000070: e0df 06bd cf2a 123c 24d6 68bc 3154 13bd
00000080: 9e41 49bd 159f a33d bf19 56bc 5708 af3d
00000090: 34b5 28bc 6939 aebc f037 813d ad39 7c3d
000000a0: d867 31bd ab3b bdbc 103c 543c 974e b1bc
000000b0: 70db 74bd 30ad 163d 9c2b c33d eb93 933d
000000c0: 7f02 2fbe f2e1 093c 574e 643d fe38 433d
000000d0: 1356 29bd a988 10bd 5edc 2cba 0a8c dcbd
000000e0: b2b0 2cbd b10d c1bb 9836 70bd e5c1 2bbd
000000f0: f48f be3c de64 853c 0150 67bb d1ea 5b3c
00000100: b359 923c 3283 e6bc 31b0 df3c 45bb ae3c
00000110: 7ff6 193b 7e01 85bd 052a 66bc abc0 773c
00000120: 6170 003d b6e8 853d 0907 323d eda0 ad3d
00000130: e135 c23c 6a10 acba 8dcc cb3d 2c94 a33c
00000140: fbff e0bd 3dea 313c 509f f7bc 5b0b 20bd
00000150: b4ca c63c b905 483c f732 71bc 926a 9f3d
00000160: a74e 733d 1b93 c63d 5224 c6bd abd9 ad3b
00000170: 0690 9b3d 4082 ce3b 6d99 7cbd ddb1 9eba
00000180: f86b dc3c 5697 0f3c 852f 99bd 6722 613d
00000190: 5380 783d 0cd3 913d 6a7b 64bc b411 3ebb
000001a0: ab63 8cbc 3bb1 e53c a28d dabc de58 843c
000001b0: f149 79bc 1166 c2bc 40bb b43d 77ad 3bbd
000001c0: 76a2 89bd 9182 1cbd e54a 8abc 999e 8ebc
000001d0: 078e 16bd 6386 c4bc 4da8 743d 612f fb3d
000001e0: 6ef8 b63b c2b4 92bd 7b34 10bd 7157 843c
000001f0: 572f 3f3d 881f f4bc eee4 a93c 6aab 3bbd
00000200: 3dcd 68bd 0a8f 2cbd 6c52 2cbd 6724 4b3c
00000210: a89c 0f3d 282a 35bd 6213 17b9 7f8b 873d
00000220: 2986 7ebc 6f09 49bc f1df c33d 32f2 9e3d
00000230: 655f 8cbc 8b45 1e3c a778 263e bc34 973a
00000240: 65f7 f7bb 55c8 18bc 4520 b53c f61c f9bc
00000250: a848 3bbd eb13 7d3c 71aa 8d3d 83da a83d
00000260: ae64 dd3c 04a3 4abd 23b0 7bbd 3719 413d
00000270: cd75 8ebd b60c 113d dbc3 b2bc 9edf 043a
00000280: 7164 a63c bbaa 0fbd 49d2 603d 34f7 babd
00000290: cacf db3d 6b4c d63d e8db 57bc 20a9 0bbe
000002a0: cd6b 923d 2999 c53c df40 4d3d 1787 3f3c
000002b0: 909a d73b f819 583d 7bb5 88bc b244 83bd
000002c0: 43b7 1d3b 6d7c e4ba cb44 3ebd 1317 91ba
000002d0: c9d8 d53c f585 9e3a 6c0c 273d d940 f7bc
000002e0: 69d4 60bd b3c4 a9bd 15a0 8e3d 6c4d 4d3c
000002f0: 15c3 abbd 29a0 ae3d 3d49 66bd 29c6 dc3c
00000300: b0c7 843c cfa5 aabb 82a2 1c3c e39b ed3c
00000310: 0939 adbb 8a19 fd3c b8b6 9c3d 69f1 23bd
00000320: 2e3c d5ba 2b41 88bc 90b7 12bd 0407 453d
00000330: 53d3 133d c988 0ebc c567 283d b582 023e
00000340: a7b1 fe3d 80dc f63c 0119 da3c 7a09 03bd
00000350: b263 f53a b931 ca3c 809a 17bc 63cb 333b
00000360: 5054 363d c726 62bb 714d 4abd 7c11 d9bc
00000370: 4611 b03d d62f 66bd fabe 173c 1793 38bc
00000380: cb4c d9bb 281d cc3c ac62 48bc ae90 efbc
00000390: 5e92 823d a913 5b3d f421 3c3c b83b 103b
000003a0: e50d cf3c 9e38 933d a23f 4abd a93b 69bc
000003b0: 7b66 653c 35af 80bd 41a3 8bbd 86da 33bc
000003c0: b23d 373d be83 843c 17d3 083c f8ed 7f3d
000003d0: 6458 943d d674 d5bd 6405 163b 6fe7 803c
000003e0: fbbd adba 6566 e23d 7b41 743d 2524 253d
000003f0: f63e a7bc 2225 d1bd cd9e a9bb fcec c0bc
0.11656308 0.14270031 -0.015175605 0.0014138919 0.072672784 0.010428693 -0.04060423 0.0183456
0.09998517 0.026538242 0.023250742 0.08865005 -0.04846221 -0.0062496387 0.018275645 0.021186283
-0.046694376 0.00036271618 -0.105594054 0.021214105 0.17593691 -0.09124486 -0.068088725 0.11766673
0.041147515 -0.14904504 -0.15808022 0.049382433 -0.032928348 0.008921339 -0.014211211 -0.035968963
-0.049134843 0.07989327 -0.013067662 0.085465126 -0.010297108 -0.02126761 0.06309497 0.06157844
-0.043311924 -0.023099741 0.012953773 -0.02164392 -0.059779584 0.03678626 0.09529802 0.072059475
-0.17090796 0.008415686 0.055738773 0.047661774 -0.041341852 -0.03528658 -0.00065941166 -0.10768898
-0.042160697 -0.0058915247 -0.058645815 -0.04193296 0.023262002 0.016283449 -0.0035295489 0.013422684
0.017865038 -0.02813873 0.027305694 0.021329531 0.002349287 -0.06494425 -0.014048104 0.015121619
0.031357173 0.06538527 0.04346374 0.0847796 0.023707332 -0.001312745 0.09951124 0.019968115
-0.109863244 0.010859069 -0.030227333 -0.03907333 0.024266578 0.012208396 -0.014721624 0.077839985
0.05940118 0.09696027 -0.09674896 0.005305489 0.0759583 0.006302148 -0.061669756 -0.0012107451
0.026906952 0.008764109 -0.07479767 0.05496445 0.060669255 0.07120332 -0.01394544 -0.002900225
-0.01713737 0.028038612 -0.026678864 0.016155656 -0.015215383 -0.02373031 0.088247776 -0.045819726
-0.0672044 -0.038210455 -0.016881416 -0.01740961 -0.03675654 -0.023989862 0.059730817 0.12264896
0.0055838143 -0.07163383 -0.0352063 0.016154977 0.046676006 -0.029800192 0.020739045 -0.04581777
-0.056836355 -0.0421286 -0.04207079 0.012398816 0.03506151 -0.044229656 -0.00014407703 0.06618404
-0.015534916 -0.012270316 0.09564198 0.07761039 -0.017135331 0.009660135 0.16256963 0.0011536102
-0.0075673335 -0.009325107 0.022110114 -0.030409317 -0.045723587 0.015446643 0.06917275 0.08244803
0.027025547 -0.04947187 -0.061447274 0.047143187 -0.069560625 0.035412513 -0.021821907 0.0005068722
0.020311566 -0.03507493 0.054888044 -0.091291815 0.10732992 0.10463794 -0.013174988 -0.13638735
0.071494676 0.024120884 0.050110694 0.011689923 0.0065797046 0.05275914 -0.0166881 -0.06409587
0.0024065531 -0.0017432101 -0.046452325 -0.0011069499 0.026104348 0.0012094366 0.04078333 -0.030182289
-0.05489007 -0.082894705 0.06964127 0.012530666 -0.08386818 0.08526642 -0.05622219 0.026949959
0.0162085 -0.005207754 0.009560229 0.029004997 -0.00528634 0.030895967 0.07652038 -0.04002515
-0.0016268545 -0.016632637 -0.03581959 0.048102394 0.036090206 -0.008699604 0.041114587 0.12745173
0.12436228 0.03013444 0.02662325 -0.03199146 0.0018721728 0.024681913 -0.009253144 0.002743446
0.044514 -0.0034507976 -0.04939026 -0.026497595 0.08597045 -0.056197964 0.009261841 -0.011265538
-0.006631469 0.024916247 -0.012230556 -0.029243793 0.063755736 0.053485546 0.011482704 0.0022008251
0.02527518 0.07188533 -0.04937709 -0.0142354155 0.014001484 -0.06283418 -0.068182476 -0.010977393
0.04473657 0.0161761 0.008351109 0.062482804 0.07243422 -0.10422675 0.0022891397 0.015735356
-0.0013255471 0.110546865 0.05963276 0.040317673 -0.020415764 -0.10212161 -0.005176401 -0.023550503

block3.bn2.weight f4 [32]
00000000: fb11 693f 5b40 aa3f 7e63 723f 9ecc 6f3f
00000010: d013 603f ab9e 6e3f b8d7 5f3f cb5e 6f3f
00000020: d967 743f 454f 933f 95b9 593f f193 7e3f
00000030: 6c68 873f f410 803f 1926 8a3f c0f4 653f
00000040: 48fa 793f 0861 803f b764 663f 2182 793f
00000050: 528a 943f 68d2 8a3f 91c3 833f 13c0 5c3f
00000060: 200e 5a3f bf8e 8d3f 499a 7e3f 5281 863f
00000070: a74e 7c3f 6738 673f f346 723f 839a 6e3f
0.9104306 1.330089 0.94683063 0.93671596 0.8753023 0.9321086 0.87438536 0.9350402
0.9547096 1.1508566 0.850488 0.9944449 1.0578742 1.0005174 1.0792876 0.89826584
0.97647524 1.0029612 0.8999743 0.97464186 1.1604712 1.0845461 1.0294057 0.8623058
0.85177803 1.1059188 0.9945417 1.0508215 0.98557514 0.9032044 0.9463951 0.93204516

block3.bn2.bias f4 [32]
00000000: b854 163e 58e4 9d3e 69d8 523c 3d0d a53d
00000010: 70eb b43d 6f2d 9c3d 661d b23d c691 4e3e
00000020: b888 b33c de67 053e 3d9c 863e d1c4 c93c
00000030: d9ea 353e 6dcb b53d 8ff2 553d 1dbd 703e
00000040: 9976 903e 5353 7abb f75b 593e b164 bc3d
00000050: db3d a93e cd2b f63d a01b 37bc 9ee1 4d3d
00000060: efad fe3d 3718 b83e 2b37 883d 0558 3e3e
00000070: bd85 2c3e 6e48 f63d 628c 6d3d 8c60 943d
0.14680755 0.30838275 0.012868979 0.080591656 0.08833969 0.07625853 0.086970136 0.20172796
0.021915779 0.13027903 0.26291075 0.024629982 0.17765369 0.08876691 0.052233275 0.23509641
0.28215483 -0.0038196638 0.21226488 0.09198893 0.33055004 0.12020073 -0.01117602 0.050263993
0.12435519 0.35955974 0.066511475 0.18588264 0.16847892 0.120255336 0.057995208 0.07244977

block3.bn2.running_mean f4 [32]
00000000: 044a 5a3f e0b1 cf3e f8da 5ebd cd03 413f
00000010: d0ed 163f a3c5 20be 23d0 1d3f 0828 31bf
00000020: 1a27 c13e 5bd9 45bf f5cb c63e dbd2 303f
00000030: b1f5 2fc0 2da3 91bd d38d 843f aa96 6fbf
00000040: 5066 293f 6a50 91bf e439 053f 3240 993d
00000050: 4e8c d13d 3672 eb3e 619a e1bf 36d0 2d3f
00000060: 171a 6bbf f909 8a3f f2a9 0d3f 6bea 64bf
00000070: 43aa 1ebf 9ba9 87bf 1f87 1b3e 70e5 9abf
0.8526919 0.40565395 -0.054408044 0.75396425 0.58956623 -0.15700392 0.61645716 -0.6920171
0.37725145 -0.77284783 0.38827482 0.6907174 -2.7493708 -0.071112014 1.0355781 -0.9358927
0.6617174 -1.1352665 0.5204146 0.074829474 0.10231839 0.45985574 -1.7625238 0.6789583
-0.91836685 1.0784293 0.5533744 -0.89420193 -0.6197855 -1.0598634 0.15188263 -1.2101269

block3.bn2.running_var f4 [32]
00000000: 71a6 3b3f b41a be3e 8197 f93e c7d9 173f
00000010: 0089 263f 6f90 383f 7510 353f ba1f 183f
00000020: a651 183f ca69 8a3f 48d1 323f 2643 973f
00000030: 1e5f 653f 2614 193f 4ba7 3e3f 51f9 253f
00000040: c43d 873f 8572 363f 12aa 093f 6f32 583f
00000050: 7651 883f 87ed 323f e322 1c3f d020 053f
00000060: 2d51 203f 45af c13f ab24 473f d575 8b3f
00000070: 4122 4b3f dc58 133f 2f85 f23e 0cae 113f
0.73300844 0.37129748 0.487484 0.59316677 0.65052795 0.7209539 0.70728236 0.5942341
0.59499586 1.0813534 0.6985059 1.1817367 0.8959826 0.5979637 0.7447402 0.6483355
1.0565724 0.7126849 0.5377513 0.84451956 1.064986 0.6989369 0.6099073 0.5200319
0.62623864 1.5131613 0.77790326 1.0895334 0.7934914 0.57557464 0.47367236 0.569062
