model/letnet.pt (torch, 11435 bytes, 12 tensors)

weight f4 [8, 3, 3, 3]
-0.019509777 -0.14793521 -0.16765802 -0.051037434 0.032660652 0.081116416 0.07880897 0.04071274
0.14840685 0.0530132 -0.18199271 0.020622307 -0.14165111 0.038015936 0.020912446 0.080572054
0.11895301 -0.010113312 -0.003971622 -0.24571516 0.014082756 0.043864567 -0.17854758 0.038653962
0.09415502 0.1602893 0.07575924 0.14239529 -0.09331614 0.070504 -0.0045471597 0.0639779
-0.18895745 0.016034843 0.02495204 -0.057194225 0.12669317 0.16184428 0.0355443 0.052725345
-0.0011176624 0.082626835 -0.09558414 -0.19689979 -0.17958735 0.19023071 0.09257793 0.11392238
0.079092726 -0.12563431 -0.25810373 0.03661507 -0.078756124 -0.025789186 -0.019794995 -0.00053551205
0.036125913 0.066011906 0.18487045 0.100400716 -0.06817735 -0.22300772 -0.07862498 0.030696394
0.0516349 -0.026647508 -0.04225983 0.056051027 0.19628675 0.09030915 -0.15251449 -0.2089117
0.002202172 0.102503635 -0.028248645 -0.019661509 0.111797825 0.05779578 -0.07662014 -0.14529307
-0.007612799 -0.11668674 -0.062561855 -0.20122874 0.09087883 -0.12619753 0.026184892 0.03211001
0.16348316 0.18504837 0.041264456 0.030650474 -0.03703316 -0.13529333 0.18936011 -0.057518527
0.024984537 -0.095508195 0.048692573 0.08444665 0.058549233 0.24466029 0.037352104 -0.044372234
0.01934338 -0.073171124 -0.10072614 -0.21331084 -0.13922441 0.0033600363 -0.175024 -0.25933978
0.08708076 0.020599985 0.093149 0.011581255 -0.04854791 0.028116904 0.0008767693 -0.003077939
0.05828026 0.05798863 0.019630944 -0.13360985 -0.037515305 0.17870213 0.12145247 0.04108077
0.15715457 0.23821601 0.08230666 0.22277442 0.08446834 0.19420627 0.15188691 0.08751677
-0.039887577 0.20904298 0.045821235 0.10467103 -0.2085299 -0.12497338 -0.02213656 -0.1334947
0.061577335 0.053017534 0.004927006 -0.05420875 -0.2528118 0.03562889 0.11076145 0.0334889
-0.06601119 -0.15457128 0.010278069 -0.043528456 0.18224683 -0.07391715 -0.19819593 -0.09404925
0.07713036 -0.036436502 0.01384178 0.054748118 -0.15508799 0.07632384 -0.042070314 0.027983086
0.07296404 0.069095075 -0.09297397 0.088284604 0.0877835 -0.14874656 0.06101588 -0.16771978
-0.1140132 0.22330375 -0.029369522 -0.0006796173 0.020453654 -0.06557041 -0.025334554 0.07723897
0.080068655 -0.2135755 0.042736836 0.0004973662 0.053004615 0.0545498 0.037295587 0.033744086
-0.06844257 -0.3528087 0.120630495 0.040486105 0.11156293 0.09605427 0.02393829 0.011107856
0.19039395 0.017501108 -0.23450501 0.10723527 -0.050900336 -0.03904785 -0.025800625 0.16645877
-0.07845667 0.06670406 -0.20397647 -0.13656238 0.013823332 0.021863138 -0.08761828 0.14158034
00000000: f8d2 9fbc 547c 17be 8bae 2bbe a10c 51bd
00000010: 2dc7 053d 5d20 a63d 9966 a13d 67c2 263d
00000020: f7f7 173e 5f24 593d 4c5c 3abe 1df0 a83c
00000030: fd0c 11be 99b6 1b3d 9450 ab3c f602 a53d
00000040: a39d f33d 4eb2 25bc 6124 82bb c19c 7bbe
00000050: 5cbb 663c 55ab 333d 2dd5 36be 9e53 1e3d
00000060: 59d4 c03d e122 243e a927 9b3d 12d0 113e
00000070: 881c bfbd 6764 903d 5700 95bb d806 833d
00000080: 107e 41be 815b 833c 3868 cc3c 7e44 6abd
00000090: dbbb 013e 82ba 253e e696 113d 88f6 573d
000000a0: 877e 92ba 4238 a93d 9ec1 c3bd 19a0 49be
000000b0: bfe5 37be d7cb 423e 7f99 bd3d 2350 e93d
000000c0: 5efb a13d 48a6 00be 2c26 84be aff9 153d
000000d0: e44a a1bd d843 d3bc 1d29 a2bc 9b61 0cba
000000e0: c4f8 133d 4031 873d ae4e 3d3e e49e cd3d
000000f0: 91a0 8bbd 235c 64be 2206 a1bd 0177 fb3c
00000100: 1e7f 533d e04b dabc a518 2dbd c395 653d
00000110: 65ff 483e 01f4 b83d c22c 1cbe f3ec 55be
00000120: 5152 103b 6ded d13d b469 e7bc 2c11 a1bc
00000130: 42f6 e43d 45bb 6c3d 05eb 9cbd b5c7 14be
00000140: c974 f9bb 75f9 eebd 6e20 80bd e80e 4ebe
00000150: ae1e ba3d ed39 01be b381 d63c c985 033d
00000160: 2168 273e 527d 3d3e eb04 293d b416 fb3c
00000170: 15b0 17bd 568a 0abe 9ee7 413e 8c98 6bbd
00000180: 5fac cc3c cd99 c3bd dd71 473d 5ef2 ac3d
00000190: 52d1 6f3d 3a88 7a3e 85fe 183d a9bf 35bd
000001a0: 0276 9e3c beda 95bd 8249 cebd 286e 5abe
000001b0: d890 0ebe 0e34 5c3b 7e39 33be 2fc8 84be
000001c0: 6657 b23d 4dc1 a83c e7c4 be3d 4ebf 3d3c
000001d0: 2cda 46bd 6c55 e63c fed6 653a 3fb7 49bb
000001e0: 48b7 6e3d 7c85 6d3d 13d1 a03c 05d1 08be
000001f0: a6a9 19bd b1fd 363e 13bc f83d 4f44 283d
00000200: 21ed 203e e6ee 733e 6590 a83d fa1e 643e
00000210: bdfd ac3d 02de 463e 3e88 1b3e fe3b b33d
00000220: 2861 23bd 5d0f 563e 0caf 3b3d c45d d63d
00000230: dd88 55be 0bf2 ffbd bb57 b5bc d6b2 08be
00000240: 8438 7c3d ea28 593d b972 a13b ff09 5ebd
00000250: 8c70 81be 99ef 113d e6d6 e23d a82b 093d
00000260: e030 87bd ef47 1ebe 5965 283c e54a 32bd
00000270: ea9e 3a3e e061 97bd e0f3 4abe e59c c0bd
00000280: 86f6 9d3d 713e 15bd a2c8 623c 903f 603d
00000290: 63cf 1ebe ac4f 9c3d ec51 2cbd c93c e53c
000002a0: 2c6e 953d b881 8d3d 2369 bebd 8fce b43d
000002b0: d6c7 b33d 0551 18be caeb 793d bcbe 2bbe
000002c0: c17f e9bd bda9 643e 5a98 f0bc 5828 32ba
000002d0: 6c8e a73c c749 86bd 698a cfbc 772f 9e3d
000002e0: 09fb a33d 89b3 5abe d20c 2f3d ae61 023a
000002f0: 5e1b 593d 9c6f 5f3d 42c3 183d 3d37 0a3d
00000300: 9e2b 8cbd 58a3 b4be 1f0d f73d c2d4 253d
00000310: 1b7b e43d 1ab8 c43d 3c1a c43c bafd 353c
00000320: a2f6 423e 7c5e 8f3c 1522 70be 2a9e db3d
00000330: df7c 50bd a3f0 1fbd d55b d3bc 2b74 2a3e
00000340: e4ad a0bd 239c 883d 35df 50be 02d7 0bbe
00000350: 427b 623c 531a b33c 3671 b3bd 70fa 103e

weight f4 [8]
0.95737606 0.90284914 1.0622427 0.64383435 0.839661 0.866624 0.95435715 0.9266933
00000000: 9916 753f 1f21 673f 92f7 873f 54d2 243f
00000010: 06f4 563f 12db 5d3f c050 743f c63b 6d3f

bias f4 [8]
0.6478819 0.5814286 0.03981254 0.0021217433 0.3530428 -0.2922536 0.61945695 0.41262013
00000000: 97db 253f 81d8 143f 7912 233d f20c 0b3b
00000010: 07c2 b43e 44a2 95be bb94 1e3f f242 d33e

running_mean f4 [8]
-0.0049156277 -0.008276827 -0.0040070666 0.006868339 0.5263243 -0.24378589 -0.0031264403 -0.012360955
00000000: 4613 a1bb 879b 07bc b64d 83bb ce0f e13b
00000010: 30bd 063f 02a3 79be f7e4 4cbb 9a85 4abc

running_var f4 [8]
0.004767756 0.0060859495 0.0029070356 0.0001825947 0.09097683 0.015743276 0.0044475156 0.0037884729
00000000: d63a 9c3b a56c c73b f783 3e3b e476 3f39
00000010: 0f52 ba3d 0bf8 803c 77bc 913b 0748 783b

weight f4 [8, 8, 3, 3]
0.014905103 -0.13939081 -0.029183252 0.04667901 -0.21719117 0.025565773 -0.0027260734 -0.08318286
0.08953446 -0.027577663 0.105854735 0.05780427 0.029932873 0.13018617 0.11837944 0.007205915
0.10092423 0.17325754 -0.029995427 -0.24452446 -0.11497056 -0.04701038 -0.06605856 -0.17258956
-0.014901973 -0.059101097 -0.05917778 0.036102943 -0.057287965 -0.023548942 0.020236095 -0.041450907
-0.023024328 0.0029576544 -0.000391036 -0.012299889 0.036028232 0.067651935 0.022497972 0.05076799
-0.036168028 -0.08933645 0.032016303 -0.0061628036 0.0022079407 -0.12739107 0.07832641 -0.056210853
-0.015629407 0.037509423 -0.023765597 0.014113512 -0.025714975 -0.03358689 0.14815912 0.037463643
0.15592897 -0.051005803 0.13249345 0.27308407 0.012464398 -0.018704584 0.13748966 0.042506274
-0.2302024 -0.022761635 0.08529579 -0.13534115 0.025593774 -0.042181976 0.07153371 -0.07147239
0.06601081 0.106821254 0.09893931 -0.0328585 0.10738833 0.040190995 0.13196898 -0.017925715
0.10901017 -0.15191585 -0.0056548957 -0.07754838 -0.06142191 -0.16493152 -0.21652623 -0.0033517438
0.051249214 -0.13004169 -0.042356156 -0.03648131 -0.013788756 0.01672613 0.008047716 -0.079220794
-0.089013934 -0.022270188 -0.12979512 -0.020428587 0.018868228 -0.01121581 0.0073784823 -0.007401403
-0.031678315 -0.03424274 0.013410594 -0.012458664 -0.08723856 -0.072349794 -0.18102589 0.006759671
0.05752297 0.07273688 0.068322055 0.093500935 0.112209626 0.065144725 0.11018967 -0.0106487945
-0.0091934325 -0.053307094 -0.053791787 -0.10881025 -0.03506022 -0.053715896 -0.060289875 -0.008510068
0.014795306 0.13585232 -0.01268887 0.04258618 -0.052553855 -0.03557301 -0.047609564 0.00369948
-0.021053992 -0.02158341 -0.047910534 -0.09792436 -0.09954336 -0.06468664 -0.09632045 -0.08654537
-0.0045705265 0.069916695 0.0035531789 0.02073061 -0.29744443 -0.09392475 -0.13261402 0.08072504
-0.0148927625 -0.05342844 -0.0078082494 0.066585556 0.07923137 0.05594229 0.025847863 -0.0036640882
-0.041998982 -0.013870939 0.039396286 0.09289017 0.07657255 -0.07196648 0.08632671 -0.011840127
0.019330693 -0.04321282 -0.0030740243 -0.029158091 -0.010393767 0.010229575 0.022034096 0.04190396
0.0021253098 -0.017484698 -0.028069789 -0.0011092706 0.0056700963 -0.0029638726 -0.10289792 -0.056466393
0.06697597 -0.008440094 0.021626497 -0.01073855 0.050072335 0.0070082285 -0.07660809 -0.015212813
-0.06582319 -0.07969326 0.014633502 0.087327465 0.06301576 0.08876233 -0.06380848 -0.19004177
-0.010870734 0.019143399 0.17597039 -0.035399366 0.044689897 0.07121237 -0.027134927 0.005547912
-0.13606891 -0.084938616 -0.12114715 -0.014573499 0.089582704 0.042590704 0.17300677 0.044189937
0.03710028 0.07017707 -0.007246099 0.020422801 0.22956394 -0.12763897 -0.026814545 0.051556446
-0.05891102 -0.034217857 -0.07188015 -0.18687116 0.04840969 -0.07243963 -0.087151386 -0.029874729
-0.14066702 -0.0734975 -0.024356334 -0.10384665 -0.11296923 0.026478432 -0.12055389 -0.07790674
0.056006733 0.021078773 0.05517465 -0.011664235 -0.028376969 -0.059923965 0.015773848 -0.05686292
-0.053615723 -0.019017698 0.01016156 -0.028031472 -0.02527762 -0.073870204 0.029992156 0.065705836
00000000: 8834 743c 77bc 0ebe b711 efbc 7d32 3f3d
00000010: 5d67 5ebe 506f d13c eca7 32bb c65b aabd
00000020: d85d b73d 8dea e1bc 5eca d83d 2cc4 6c3d
00000030: c935 f53c 864f 053e eb70 f23d 991f ec3b
00000040: 5db1 ce3d 6d6a 313e f8b8 f5bc 9f64 7abe
00000050: af75 ebbd f58d 40bd b649 87bd 51bb 30be
00000060: 6827 74bc fe13 72bd 6664 72bd aee0 133d
00000070: c9a6 6abd b6e9 c0bc 2bc6 a53c 6dc8 29bd
00000080: 849d bcbc 35d5 413b f703 cdb9 7985 49bc
00000090: 5792 133d 198d 8a3d ab4d b83c 19f2 4f3d
000000a0: ed24 14bd 07f6 b6bd 8723 033d 58f1 c9bb
000000b0: 19b3 103b ce72 02be 9969 a03d 5a3d 66bd
000000c0: 3e09 80bc 7ba3 193d 12b0 c2bc 5c3c 673c
000000d0: 36a8 d2bc 6892 09bd 06b7 173e 7a73 193d
000000e0: d8ab 1f3e 76eb 50bd 5dac 073e add1 8b3e
000000f0: 7937 4c3c 5b3a 99bc 17ca 0c3e 0f1b 2e3d
00000100: 2eba 6bbe 9c76 babc 8faf ae3d df96 0abe
00000110: 09aa d13c 02c7 2cbd 4480 923d 1e60 92bd
00000120: ad30 873d 1ac5 da3d b1a0 ca3d a296 06bd
00000130: 6aee db3d 509f 243d e022 073e f3d8 92bc
00000140: b940 df3d d48f 1bbe b44c b9bb afd1 9ebd
00000150: 8a95 7bbd cfe3 28be 0db9 5dbe eea8 5bbb
00000160: b2ea 513d a629 05be a67d 2dbd 6d6d 15bd
00000170: 3cea 61bc 3d05 893c 91da 033c 833e a2bd
00000180: f04c b6bd f86f b6bc 03e9 04be da59 a7bc
00000190: 8b91 9a3c 84c2 37bc 32c7 f13b 7887 f2bb
000001a0: 1fc1 01bd 1e42 0cbd 1cb8 5b3c 6d1f 4cbc
000001b0: 21aa b2bd 212c 94bd da5e 39be 3b80 dd3b
000001c0: 359d 6b3d 13f7 943d 6fec 8b3d 6b7d bf3d
000001d0: 29ce e53d 996a 853d 1fab e13d 4878 2ebc
000001e0: 0da0 16bc 8a58 5abd c754 5cbd e9d7 debd
000001f0: 4e9b 0fbd 3305 5cbd 84f2 76bd d06d 0bbc
00000200: 0368 723c df1c 0b3e fae4 4fbc d96e 2e3d
00000210: b642 57bd 01b5 11bd 3f02 43bd fa72 723b
00000220: 6c79 acbc b1cf b0bc d63d 44bd 918c c8bd
00000230: 64dd cbbd 6e7a 84bd a843 c5bd b33e b1bd
00000240: 5bc4 95bb 7c30 8f3d 73dc 683b 3dd3 a93c
00000250: a34a 98be 9f5b c0bd f8cb 07be 2b53 a53d
00000260: c600 74bc c8d7 5abd 58dc ffbb 025e 883d
00000270: 0e44 a23d be23 653d e6be d33c 3321 70bb
00000280: 2007 2cbd ef42 63bc 005e 213d 343d be3d
00000290: 12d2 9c3d 2963 93bd 0fcc b03d 18fd 41bc
000002a0: 675b 9e3c edff 30bd 9275 49bb f3dc eebc
000002b0: 9e4a 2abc f399 273c d980 b43c 7da3 2b3d
000002c0: c848 0b3b 123c 8fbc 9df2 e5bc f264 91ba
000002d0: 37cc b93b 883d 42bb 25bc d2bd 4e49 67bd
000002e0: b32a 893d 5248 0abc 0d2a b13c bef0 2fbc
000002f0: a618 4d3d 48a5 e53b b4e4 9cbd 2a3f 79bc
00000300: 4fce 86bd 3836 a3bd 5bc1 6f3c bed8 b23d
00000310: 680e 813d 06c9 b53d 05ae 82bd 4f9a 42be
00000320: 2a1b 32bc 9ed2 9c3c 9531 343e edfe 10bd
00000330: c10c 373d cbd7 913d 114a debc 42cb b53b
00000340: a655 0bbe 4cf4 adbd ff1b f8bd afc5 6ebc
00000350: 2377 b73d 9773 2e3d b028 313e 8200 353d
00000360: 77f6 173d ffb8 8f3d af70 edbb b84d a73c
00000370: cf12 6b3e cab3 02be 2daa dbbc da2c 533d
00000380: af4c 71bd 0628 0cbd e635 93bd 275b 3fbe
00000390: 3d49 463d 3b5b 94bd 6d7c b2bd d9bb f4bc
000003a0: 040b 10be db85 96bd ef86 c7bc 8dad d4bd
000003b0: 695c e7bd 4ce9 d83c f5e4 f6bd 928d 9fbd
000003c0: 5167 653d 64ad ac3c d0fe 613d 591b 3fbc
000003d0: d176 e8bc d572 75bd 2838 813c 18e9 68bd
000003e0: 299c 5bbd 01cb 9bbc ac7c 263c 42a2 e5bc
000003f0: 0313 cfbc 4349 97bd 1cb2 f53c c890 863d

weight f4 [8]
0.75690526 1.003008 0.97872096 0.42199293 1.0535843 0.6260074 0.73282975 0.8775559
00000000: 8bc4 413f 9162 803f 758d 7a3f 750f d83e
00000010: dadb 863f 0542 203f bb9a 3b3f 81a7 603f

bias f4 [8]
0.55019355 0.49309778 -0.03656725 1.1490355 0.44940758 1.1534196 1.017247 1.1393827
00000000: 7cd9 0c3f 5077 fc3e 8ac7 15bd 9813 933f
00000010: c018 e63e 41a3 933f 2635 823f 4bd7 913f

running_mean f4 [8]
0.46399307 -0.4857419 -0.185005 -0.4450654 -0.536198 -1.8722279 0.76695865 0.5737692
00000000: 8090 ed3e 2ab3 f8be f371 3dbe 9ddf e3be
00000010: 4644 09bf 2aa5 efbf 6757 443f 8ae2 123f

running_var f4 [8]
0.728547 0.68072563 0.23469415 0.4618755 0.55607134 1.1607068 0.5877602 1.1067505
00000000: 0e82 3a3f 0944 2e3f aa53 703e f27a ec3e
00000010: b15a 0e3f 0a92 943f 7477 163f 00aa 8d3f

weight f4 [16, 8, 1, 1]
0.16977416 -0.040820412 0.077421315 0.08870861 -0.06345641 0.17903307 0.3972207 -0.39937407
0.005342894 0.5628009 -0.5466045 -0.27681375 0.17566913 0.44694084 -0.07292229 -0.5577009
-0.26953268 -0.31511822 0.2356228 -0.5655407 -0.37909815 0.389113 0.088655576 0.22014414
0.12285094 0.33806732 0.052743945 0.3967283 -0.08411001 0.16721968 -0.2204158 0.040275075
-0.10217829 -0.15495293 -0.07887534 -0.035288796 -0.02872371 -0.20317318 -0.13838421 -0.030657912
0.25404707 0.5026423 -0.28223267 0.11086509 0.359296 0.021805998 0.10474502 0.1505428
-0.079889394 -0.15882766 -0.009706167 -0.29192454 -0.33436126 -0.043110788 -0.089362025 -0.14083867
0.1590957 0.06509581 -0.17581743 0.22656903 -0.04321563 0.41052902 -0.27897164 -0.15731695
0.30441335 -0.19676739 -0.2180414 0.44571123 0.34983006 -0.2440868 0.23129988 0.09181715
-0.14609762 0.0778353 -0.037648015 -0.058600996 0.036918532 -0.06901274 -0.25753814 0.43718824
0.39724347 0.03913094 -0.2634872 0.12509558 0.23974833 0.06032077 -0.18359567 -0.100401044
-0.01869156 -0.027499303 -0.1652009 0.108796686 0.43919802 -0.0037499254 -0.15214299 -0.019102516
-0.30423036 0.090398625 0.30418825 -0.32918286 -0.6214127 0.41765898 -0.22368741 -0.036359973
0.23477323 0.040403936 0.083257146 0.17100154 0.1090801 0.43275514 0.2747512 0.4483875
-0.010056534 0.26170266 0.052822325 -0.15852731 0.008998399 -0.031894382 0.02925545 0.31478846
0.15436949 0.24164164 -0.08696867 0.4682654 0.22269167 -0.25925553 0.44882098 -0.11980143
00000000: 47d9 2d3e 4e33 27bd 118f 9e3d dcac b53d
00000010: 6ff5 81bd 7254 373e 8360 cb3e c27a ccbe
00000020: 7113 af3b b813 103f 46ee 0bbf 88ba 8dbe
00000030: 9ce2 333e 6ed5 e43e 4858 95bd 7cc5 0ebf
00000040: 3000 8abe 2d57 a1be 1a47 713e 46c7 10bf
00000050: 2719 c2be d239 c73e 0e91 b53d 776d 613e
00000060: 4699 fb3d 2917 ad3e 090a 583d f91f cb3e
00000070: de41 acbd a33b 2b3e aeb4 61be 7af7 243d
00000080: da42 d1bd fbab 1ebe 6589 a1bd fc8a 10bd
00000090: fc4d ebbc a10c 50be 97b4 0dbe 4d26 fbbc
000000a0: 7512 823e 2aad 003f cd80 90be 3c0d e33d
000000b0: a5f5 b73e 7ea2 b23c 8f84 d63d e427 1a3e
000000c0: 0d9d a3bd b8a3 22be 9d06 1fbc 2277 95be
000000d0: 6631 abbe f094 30bd 7003 b7bd 0338 10be
000000e0: fce9 223e f450 853d 7c09 34be b601 683e
000000f0: df02 31bd dc30 d23e 5fd5 8ebe b217 21be
00000100: 11dc 9b3e 647d 49be 3f46 5fbe 4334 e43e
00000110: ed1c b33e e4f1 79be e0d9 6c3e a10a bc3d
00000120: 9d9a 15be 1d68 9f3d ce34 1abd 9907 70bd
00000130: e337 173d 8d56 8dbd 0adc 83be 23d7 df3e
00000140: 7f63 cb3e c447 203d cbe7 86be 0e19 003e
00000150: 9680 753e e912 773d 8100 3cbe 109f cdbd
00000160: 0b1f 99bc 3846 e1bc 6d2a 29be ccd0 de3d
00000170: 90de e03e 4fc1 75bb 5fcb 1bbe e17c 9cbc
00000180: 15c4 9bbe ea22 b93d 90be 9b3e a88a a8be
00000190: e714 1fbf 66d7 d53e 500e 65be 32ee 14bd
000001a0: 6568 703e 997e 253d b982 aa3d 071b 2f3e
000001b0: 6365 df3d 1592 dd3e 30ac 8c3e 0c93 e53e
000001c0: 29c4 24bc e4fd 853e 395c 583d fc54 22be
000001d0: 056e 133c afa3 02bd 20a9 ef3c f42b a13e
000001e0: 0913 1e3e e870 773e a11c b2bd 7cc0 ef3e
000001f0: 4909 643e 24bd 84be ddcb e53e 745a f5bd

weight f4 [4, 16, 1, 1]
-0.41397431 -0.09197878 -0.27044356 0.44263133 0.07099438 0.3471717 0.09840444 -0.05942772
0.016930213 0.087467216 -0.028508756 0.25632152 0.5692952 -0.3998017 -0.003225983 -0.26293597
-0.35668916 -0.557543 0.11536533 -0.2056402 -0.040878385 -0.24201256 -0.123753786 -0.40717906
0.12802999 -0.11507425 -0.22809564 -0.09841136 0.044471238 0.24753141 0.043745622 -0.15230617
0.4455725 0.1401701 -0.24361537 -0.35775638 -0.11614704 -0.12269638 -0.112773925 0.09897152
-0.35007298 -0.8689734 0.36168078 0.24493235 0.121489346 -0.13960959 -0.31897163 0.21334618
-0.16956702 -1.3622465 1.2488755 -1.0670055 -0.1839959 -1.8710519 0.17778242 -1.6745446
-3.5574234 -1.0053267 -3.8806558 -3.469334 2.3001525 -0.34466538 -0.3784974 -1.7562286
00000000: 71f4 d3be 5f5f bcbd 9477 8abe 93a0 e23e
00000010: 8065 913d 7dc0 b13e 4488 c93d 7b6a 73bd
00000020: 3bb1 8a3c 0322 b33d 328b e9bc 933c 833e
00000030: 55bd 113f cfb2 ccbe 036b 53bb 8b9f 86be
00000040: f69f b6be 23bb 0ebf a844 ec3d 5893 52be
00000050: 1870 27bd 24d2 77be a072 fdbd c679 d0be
00000060: 4b1a 033e 0cac ebbd e791 69be e58b c9bd
00000070: 7927 363d e078 7d3e 9c2e 333d 26f6 1bbe
00000080: 1422 e43e c088 0f3e 4f76 79be d82b b7be
00000090: 80de edbd 3d48 fbbd 04f6 e6bd 95b1 ca3d
000000a0: c43c b3be 0a75 5ebf 392e b93e 8ccf 7a3e
000000b0: 68cf f83d d1f5 0ebe 4050 a3be 6c77 5a3e
000000c0: faa2 2dbe 185e aebf 27db 9f3f a393 88bf
000000d0: 6c69 3cbe a17e efbf 980c 363e 7a57 d6bf
000000e0: d3ac 63c0 8cae 80bf aa5c 78c0 9109 5ec0
000000f0: b335 1340 fb77 b0be 69ca c1be 19cc e0bf
