model/letnet.onnx (onnx, 31358 bytes, 6 tensors)

conv1.weight f4 [16, 8, 1, 1]
00000000: 47d9 2d3e 4e33 27bd 118f 9e3d dcac b53d
00000010: 6ff5 81bd 7254 373e 8360 cb3e c27a ccbe
00000020: 7113 af3b b813 103f 46ee 0bbf 88ba 8dbe
00000030: 9ce2 333e 6ed5 e43e 4858 95bd 7cc5 0ebf
00000040: 3000 8abe 2d57 a1be 1a47 713e 46c7 10bf
00000050: 2719 c2be d239 c73e 0e91 b53d 776d 613e
00000060: 4699 fb3d 2917 ad3e 090a 583d f91f cb3e
00000070: de41 acbd a33b 2b3e aeb4 61be 7af7 243d
00000080: da42 d1bd fbab 1ebe 6589 a1bd fc8a 10bd
00000090: fc4d ebbc a10c 50be 97b4 0dbe 4d26 fbbc
000000a0: 7512 823e 2aad 003f cd80 90be 3c0d e33d
000000b0: a5f5 b73e 7ea2 b23c 8f84 d63d e427 1a3e
000000c0: 0d9d a3bd b8a3 22be 9d06 1fbc 2277 95be
000000d0: 6631 abbe f094 30bd 7003 b7bd 0338 10be
000000e0: fce9 223e f450 853d 7c09 34be b601 683e
000000f0: df02 31bd dc30 d23e 5fd5 8ebe b217 21be
00000100: 11dc 9b3e 647d 49be 3f46 5fbe 4334 e43e
00000110: ed1c b33e e4f1 79be e0d9 6c3e a10a bc3d
00000120: 9d9a 15be 1d68 9f3d ce34 1abd 9907 70bd
00000130: e337 173d 8d56 8dbd 0adc 83be 23d7 df3e
00000140: 7f63 cb3e c447 203d cbe7 86be 0e19 003e
00000150: 9680 753e e912 773d 8100 3cbe 109f cdbd
00000160: 0b1f 99bc 3846 e1bc 6d2a 29be ccd0 de3d
00000170: 90de e03e 4fc1 75bb 5fcb 1bbe e17c 9cbc
00000180: 15c4 9bbe ea22 b93d 90be 9b3e a88a a8be
00000190: e714 1fbf 66d7 d53e 500e 65be 32ee 14bd
000001a0: 6568 703e 997e 253d b982 aa3d 071b 2f3e
000001b0: 6365 df3d 1592 dd3e 30ac 8c3e 0c93 e53e
000001c0: 29c4 24bc e4fd 853e 395c 583d fc54 22be
000001d0: 056e 133c afa3 02bd 20a9 ef3c f42b a13e
000001e0: 0913 1e3e e870 773e a11c b2bd 7cc0 ef3e
000001f0: 4909 643e 24bd 84be ddcb e53e 745a f5bd
0.16977416 -0.040820412 0.077421315 0.08870861 -0.06345641 0.17903307 0.3972207 -0.39937407
0.005342894 0.5628009 -0.5466045 -0.27681375 0.17566913 0.44694084 -0.07292229 -0.5577009
-0.26953268 -0.31511822 0.2356228 -0.5655407 -0.37909815 0.389113 0.088655576 0.22014414
0.12285094 0.33806732 0.052743945 0.3967283 -0.08411001 0.16721968 -0.2204158 0.040275075
-0.10217829 -0.15495293 -0.07887534 -0.035288796 -0.02872371 -0.20317318 -0.13838421 -0.030657912
0.25404707 0.5026423 -0.28223267 0.11086509 0.359296 0.021805998 0.10474502 0.1505428
-0.079889394 -0.15882766 -0.009706167 -0.29192454 -0.33436126 -0.043110788 -0.089362025 -0.14083867
0.1590957 0.06509581 -0.17581743 0.22656903 -0.04321563 0.41052902 -0.27897164 -0.15731695
0.30441335 -0.19676739 -0.2180414 0.44571123 0.34983006 -0.2440868 0.23129988 0.09181715
-0.14609762 0.0778353 -0.037648015 -0.058600996 0.036918532 -0.06901274 -0.25753814 0.43718824
0.39724347 0.03913094 -0.2634872 0.12509558 0.23974833 0.06032077 -0.18359567 -0.100401044
-0.01869156 -0.027499303 -0.1652009 0.108796686 0.43919802 -0.0037499254 -0.15214299 -0.019102516
-0.30423036 0.090398625 0.30418825 -0.32918286 -0.6214127 0.41765898 -0.22368741 -0.036359973
0.23477323 0.040403936 0.083257146 0.17100154 0.1090801 0.43275514 0.2747512 0.4483875
-0.010056534 0.26170266 0.052822325 -0.15852731 0.008998399 -0.031894382 0.02925545 0.31478846
0.15436949 0.24164164 -0.08696867 0.4682654 0.22269167 -0.25925553 0.44882098 -0.11980143

conv_head.weight f4 [4, 16, 1, 1]
00000000: 71f4 d3be 5f5f bcbd 9477 8abe 93a0 e23e
00000010: 8065 913d 7dc0 b13e 4488 c93d 7b6a 73bd
00000020: 3bb1 8a3c 0322 b33d 328b e9bc 933c 833e
00000030: 55bd 113f cfb2 ccbe 036b 53bb 8b9f 86be
00000040: f69f b6be 23bb 0ebf a844 ec3d 5893 52be
00000050: 1870 27bd 24d2 77be a072 fdbd c679 d0be
00000060: 4b1a 033e 0cac ebbd e791 69be e58b c9bd
00000070: 7927 363d e078 7d3e 9c2e 333d 26f6 1bbe
00000080: 1422 e43e c088 0f3e 4f76 79be d82b b7be
00000090: 80de edbd 3d48 fbbd 04f6 e6bd 95b1 ca3d
000000a0: c43c b3be 0a75 5ebf 392e b93e 8ccf 7a3e
000000b0: 68cf f83d d1f5 0ebe 4050 a3be 6c77 5a3e
000000c0: faa2 2dbe 185e aebf 27db 9f3f a393 88bf
000000d0: 6c69 3cbe a17e efbf 980c 363e 7a57 d6bf
000000e0: d3ac 63c0 8cae 80bf aa5c 78c0 9109 5ec0
000000f0: b335 1340 fb77 b0be 69ca c1be 19cc e0bf
-0.41397431 -0.09197878 -0.27044356 0.44263133 0.07099438 0.3471717 0.09840444 -0.05942772
0.016930213 0.087467216 -0.028508756 0.25632152 0.5692952 -0.3998017 -0.003225983 -0.26293597
-0.35668916 -0.557543 0.11536533 -0.2056402 -0.040878385 -0.24201256 -0.123753786 -0.40717906
0.12802999 -0.11507425 -0.22809564 -0.09841136 0.044471238 0.24753141 0.043745622 -0.15230617
0.4455725 0.1401701 -0.24361537 -0.35775638 -0.11614704 -0.12269638 -0.112773925 0.09897152
-0.35007298 -0.8689734 0.36168078 0.24493235 0.121489346 -0.13960959 -0.31897163 0.21334618
-0.16956702 -1.3622465 1.2488755 -1.0670055 -0.1839959 -1.8710519 0.17778242 -1.6745446
-3.5574234 -1.0053267 -3.8806558 -3.469334 2.3001525 -0.34466538 -0.3784974 -1.7562286

onnx::Conv_35 f4 [8, 3, 3, 3]
00000000: b75a 8abe d422 03c0 839e 14c0 8df7 34bf
00000010: 439d e73e 61cf 8f3f 20b8 8b3f a65b 103f
00000020: db8d 0340 fdf8 3b3f 7953 21c0 713e 923e
00000030: 9021 fbbf b7cb 063f 2b4d 943e 50d8 8e3f
00000040: d7e3 d23f 1a70 0fbe be51 61bd f6cf 59c0
00000050: a2bc 473e 9e88 1b3f ac45 1ec0 dc0e 093f
00000060: 0fed a63f 5516 0e40 fa4f 863f 0ac4 d23f
00000070: 1a1f 8abf 60b6 503f ec5f 57bd aa64 3d3f
00000080: a0d7 0bc0 0adf 3d3e 0abb 933e c44f 29bf
00000090: 3d86 bb3f 9a8d ef3f 6671 d23e 1815 1c3f
000000a0: 36c0 53bc 7a99 743f 7c7a 8dbf 5eb8 11c0
000000b0: 61e8 04c0 dbc8 0c40 6107 893f 299f a83f
000000c0: 3523 6a3f 04f5 b9bf fc03 3fc0 56c8 d83e
000000d0: 1e24 69bf e0af 98be 2355 c7be 8f8f 2cbc
000000e0: 26e4 353f b52e a63f bfb3 6840 45c1 fc3f
000000f0: 45a2 abbf 755a 8cc0 74ef c5bf d28d 1a3f
00000100: 27fd 813f 0d2b 06bf 67c6 54bf 371b 8d3f
00000110: 7b12 7740 8e59 e33f 85f9 3fc0 577b 83c0
00000120: 7f67 313d 4506 0140 d23a 0ebf 06fd c5be
00000130: 2fb9 0c40 a97f 913f 65e3 c0bf 87e2 36c0
00000140: c651 19be ea3a adc0 65c1 39c0 985e 15c1
00000150: 98ea 8640 8159 bbc0 627e 9b3f c5ad be3f
00000160: f1b3 f240 ea5b 0941 650a f53f fa02 b63f
00000170: f6e9 dbbf 5fda c8c0 418f 0c41 f3c7 2ac0
00000180: 995d 943f fdc9 8dc0 5393 1040 13bc 7a40
00000190: 65d7 2d40 b39b 3541 d2ce dd3f 6dbf 03c0
000001a0: c6bb 653f 8641 59c0 1389 95c0 8056 1ec1
000001b0: 3b6d c6be 073e 193c 0673 f9be 2fcf 38bf
000001c0: 5738 783e aae0 6a3d 38c2 843e 2b0c 043d
000001d0: 4062 0abe c94a a03d cdf2 1f3b 6860 0cbc
000001e0: 1d20 263e 4e4b 253e 29d4 5f3d b56c bebe
000001f0: 23df d5bd 05b1 fe3e fc18 ad3e b232 ea3d
00000200: 35fb df3e 96c1 293f 989c 6a3e 96c0 1e3f
00000210: 03c6 703e eb64 0a3f 4179 d83e f1b1 1a3f
00000220: ce02 8dbe b1c0 b83f d9fc a13e 5c04 393f
00000230: 9c4c b8bf 50e7 5cbf c883 1cbe 46f7 6bbf
00000240: 56b0 d93e 996d bb3e 1158 0b3d aaa3 bfbe
00000250: 896f dfbf 45e9 7b3e 51c8 433f d4c7 6c3e
00000260: 095d e9be 499c 88bf 2d57 913d dae1 99be
00000270: f911 a13f 05a8 02bf 832a afbf ef3d 26bf
00000280: 0556 083f 89cf 80be a09b 4a3e bf57 483f
00000290: 67e1 0dc0 e2a5 8b3f 3ff3 19bf d0cc cc3e
000002a0: 2a80 853f e6d7 7c3f c31c aabf 4688 a13f
000002b0: 8f9d a03f 3f14 08c0 5b47 5f3f c06f 19c0
000002c0: 7b9b d0bf 7149 4c40 6df2 d6be 5c2a 1fbc
000002d0: c0b1 953e 02f2 6fbf 8d6a b9be 8752 8d3f
000002e0: f27f 923f 1963 43c0 a463 1c3f 0af7 e83b
000002f0: 71f6 413f 3bf9 513f fa8e 0f3f 56e3 013f
00000300: 91b9 83bf 1ac1 a9c0 7e2a e83f e7d6 1b3f
00000310: eab6 d63f d1dd b83f 7649 b83e 9d06 2b3e
00000320: 6e37 3740 18bb 863e 29aa 61c0 ae62 ce3f
00000330: 10ed 43bf a64d 16bf bd9f c6be 032f 2040
00000340: 80ff 96bf 0161 803f 7949 44c0 0e6a 03c0
00000350: e8d5 543e c34f a83e 6aa1 a8bf 3a3e 0840
-0.27022335 -2.0490007 -2.3221748 -0.7069023 0.4523717 1.1235162 1.0915565 0.56389844
2.0555332 0.734268 -2.5207198 0.28563264 -1.9619617 0.52654594 0.28965124 1.1159763
1.6475781 -0.14007607 -0.055009596 -3.403318 0.19505551 0.60755336 -2.4730024 0.535383
1.3041095 2.220113 1.0493157 1.6466076 -1.0790741 0.8152828 -0.052581713 0.73981726
-2.1850357 0.18542114 0.28853637 -0.6613734 1.4650341 1.8715088 0.4110214 0.60969687
-0.012924245 0.95546687 -1.1053004 -2.2768779 -2.0766833 2.1997592 1.0705377 1.3173572
0.9145997 -1.4527898 -2.9846182 0.42340344 -0.91070735 -0.29821682 -0.38932142 -0.010532274
0.7105125 1.2983004 3.6359708 1.9746481 -1.3408896 -4.386042 -1.54637 0.6037265
1.0155381 -0.5240944 -0.8311524 1.102393 3.860503 1.7761705 -2.9996045 -4.108806
0.043311592 2.0160077 -0.555585 -0.38669604 2.1988027 1.1367084 -1.5069395 -2.8575761
-0.149726 -5.4134417 -2.9024289 -9.335594 4.216137 -5.854676 1.2147944 1.489678
7.5844655 8.58494 1.9143797 1.4219658 -1.7180774 -6.2766566 8.784974 -2.668454
1.1591064 -4.430907 2.258992 3.9177291 2.7162716 11.3505125 1.7328742 -2.0585587
0.89739645 -3.3946242 -4.6729827 -9.896118 -0.3875521 0.009353167 -0.48720568 -0.7219114
0.24240242 0.057343163 0.25929427 0.032238167 -0.13514042 0.07826764 0.0024406195 -0.008567907
0.16223188 0.16142008 0.05464569 -0.37192312 -0.104429506 0.4974443 0.33808124 0.114354506
0.43746343 0.66311014 0.22911298 0.6201261 0.23513035 0.5406024 0.4228001 0.6042777
-0.27541202 1.4433805 0.3163822 0.72272277 -1.4398379 -0.86290455 -0.15284646 -0.92174184
0.42517346 0.36607054 0.034019534 -0.37429553 -1.7455913 0.24600704 0.76477534 0.23123103
-0.45578793 -1.0672694 0.070967056 -0.30055124 1.258361 -0.5103763 -1.3684849 -0.64938253
0.53256255 -0.25158337 0.19785929 0.7825889 -2.2168825 1.0909998 -0.6013679 0.4000001
1.0429738 0.98766935 -1.3290027 1.2619712 1.2548083 -2.1262357 0.87218255 -2.3974457
-1.6297449 3.1919825 -0.4198183 -0.009714689 0.29237175 -0.9372865 -0.36214104 1.104081
1.1445296 -3.0529234 0.6108954 0.0071095275 0.75766665 0.8202092 0.5607754 0.5073751
-1.0291005 -5.304822 1.8137968 0.6087479 1.6774571 1.4442693 0.35993546 0.16701742
2.8627582 0.26314616 -3.5260108 1.6123865 -0.76533604 -0.5871223 -0.38793746 2.5028694
-1.1796722 1.0029603 -3.0669844 -2.053348 0.20784724 0.32873353 -1.317426 2.128798

onnx::Conv_36 f4 [8]
00000000: 9749 373f f858 2d3f 32f0 f23d 020f a2be
00000010: fc57 8ebf d40c b23f 9005 2a3f ed35 193f
0.71596664 0.6771388 0.1186222 -0.31652075 -1.1120601 1.3910165 0.6641474 0.5984791

onnx::Conv_38 f4 [8, 8, 3, 3]
00000000: a18d 583c cb25 fdbd b1ff d3bc 288c 293d
00000010: 6e38 45be 51b8 b93c 216d 1ebb 8111 97bd
00000020: 809a a23d cd55 c8bc 263e c03d e8f4 513d
00000030: c171 d93c 5c6e ec3d 27fd d63d f762 d13b
00000040: da49 b73d 9653 1d3e 15e6 d9bc 590a 5ebe
00000050: 4bcc d0bd 48c0 2abd 19f0 6fbd 4eb8 1cbe
00000060: fd81 58bc c0aa 56bd 0df2 56bd 1322 033d
00000070: d214 50bd a511 abbc ca00 933c d78e 16bd
00000080: 0742 a7bc 79e2 2b3b 13cd b5b9 deb3 32bc
00000090: 9bdc 023d b0b9 753d 2c6f a33c 4566 383d
000000a0: 985e 03bd 713e a2bd 4794 e83c 8613 b3bb
000000b0: 9e50 003b db5a e7bd a33f 8e3d 462b 4cbd
000000c0: 9613 63bc e13d 083d 8ea4 acbc 680d 4d3c
000000d0: c9cd babc 14fd f3bc 2f89 063e 5013 083d
000000e0: 5f97 0d3e 6543 39bd 109f f03d 56f9 773e
000000f0: bd17 353c a8e0 87bc e9b1 f93d 2b64 1a3d
00000100: 0809 51be 8059 a5bc dae7 9a3d 05cb f5bd
00000110: 64ec b93c 9f36 19bd 90e9 813d 0ecd 81bd
00000120: ad58 a43d d1f9 043e fe53 f63d 699d 23bd
00000130: 89ae 053e 4c20 483d e647 243e 9084 b2bc
00000140: 61b3 073e 921c 3dbe 4e43 e1bb 4312 c1bd
00000150: e4eb 98bd 6850 4dbe 4fc5 86be 4d84 85bb
00000160: 7030 7f3d b6e1 21be 45e8 52bd 7ca7 35bd
00000170: a051 89bc 4b92 a63c 5c4a 203c 323c c5bd
00000180: f49d ddbd 8ac8 ddbc 2293 21be 7d71 cbbc
00000190: 72e7 bb3c 1a64 5fbc 05f6 123c e36a 13bc
000001a0: 01bd 1dbd ef81 2abd 878d 853c 4625 78bc
000001b0: 6632 d9bd e420 b4bd 5e59 61be c6a2 063c
000001c0: dd36 8f3d 9b17 b53d c519 aa3d cac9 e83d
000001d0: fcae 0b3e ab30 a23d 442b 093e f518 54bc
000001e0: 3d1c 37bc d4b7 84bd c1ec 85bd ac73 07be
000001f0: fd93 2ebd 62bc 85bd 611a 96bd d77f 29bc
00000200: c457 933c 721d 293e 10bb 7cbc 7d0d 543d
00000210: bfd7 82bd a721 31bd e610 6dbd 6f5e 933b
00000220: ecab d1bc a4f1 d6bc 8d90 6ebd 1bcd f3bd
00000230: ffd4 f7bd b40c a1bd d7ce efbd 9778 d7bd
00000240: f747 17bc 12a3 103e 1c37 eb3b c28a 2b3d
00000250: c7d4 19bf 754d 42be 6c2b 89be 0aff 263e
00000260: 4578 f6bc 2a0e ddbd 4439 81bc f0be 093e
00000270: 03e8 233e c674 e73d e9e2 553d ac8e f2bb
00000280: 59c4 adbd 1a8f e5bc a1ff a23d 8e29 403e
00000290: ef67 1e3e 9ce0 14be 9f95 323e 27f3 c3bc
000002a0: 3ef5 1f3d 04ca b2bd f67e cbbb 2547 71bd
000002b0: 5803 acbc b74b a93c 0154 363d b45f ad3d
000002c0: 42b1 8c3b c6ae 10bd bc45 68bd 3ddd 12bb
000002d0: 13ad 3b3c 3d34 c4bb 8bdd 54be e49f e9bd
000002e0: b28d 0a3e 35ae 8bbc 91f4 323d 17b8 b1bc
000002f0: 742b cf3d 9ff7 673c c17a 1ebe 3cc4 fbbc
00000300: 322b 08be 9fdc 24be dc2d f23c 9ca7 343e
00000310: 6a5c 023e 7f9f 373e 3a00 04be f491 c4be
00000320: 1ee8 b3bc 7c68 1e3d f003 b63e 3076 92bd
00000330: 80e6 b83d 3f51 133e 5e89 60bd c1a1 373c
00000340: 42be 8cbe 81b6 2fbe 1f9e 7abe a52f f1bc
00000350: f551 393e 1537 b03d 30f3 b23e f4d4 b63d
00000360: e7b6 bc3c 447b 323d a26e 93bb f3c3 4f3c
00000370: 6ef6 113e ef4f a2bd 1e65 88bc a61f 033d
00000380: 1bd4 15bd 7e0d aebc 1dd0 36bd 8aa2 edbd
00000390: ae3d f63c 633c 38bd fea6 5dbd 00f6 97bc
000003a0: 1fe1 b2bd 25ed 3abd 36c8 77bc 840e 84bd
000003b0: 4ea8 8fbd 71af 863c 704d 99bd f123 46bd
000003c0: 2a71 0e3d 5370 563c 6853 0c3d 4d53 edbb
000003d0: a957 90bc 9e67 18bd 7c78 203c 9e9e 10bd
000003e0: 6a5c 08bd 9578 41bc 58c0 ce3b c395 8ebc
000003f0: c793 80bc cfdf 3bbd e88e 983c 1c1c 273d
0.013217361 -0.12360724 -0.02587876 0.04139343 -0.19259807 0.022670897 -0.0024173933 -0.073763855
0.07939625 -0.024454976 0.09386854 0.05125895 0.0265435 0.11544487 0.10497504 0.0063899714
0.08949633 0.15363917 -0.02659897 -0.21683635 -0.10195216 -0.04168728 -0.058578584 -0.15304682
-0.013214585 -0.052408934 -0.05247693 0.032014918 -0.050801106 -0.020882437 0.017944712 -0.036757316
-0.020417226 0.0026227518 -0.00034675802 -0.0109071415 0.031948667 0.05999154 0.019950472 0.045019407
-0.032072634 -0.07922066 0.028391017 -0.005464974 0.0019579302 -0.11296626 0.069457315 -0.049845956
-0.01385965 0.033262137 -0.02107456 0.012515403 -0.022803204 -0.029783763 0.13138269 0.033221543
0.13827275 -0.045230288 0.11749089 0.24216208 0.011053023 -0.016586617 0.12192137 0.037693184
-0.20413601 -0.020184278 0.075637534 -0.120016135 0.022695728 -0.037405606 0.06343377 -0.06337939
0.08024726 0.12985922 0.12027739 -0.03994504 0.13054861 0.048858926 0.16043052 -0.021791726
0.13252021 -0.1846793 -0.0068744784 -0.09427311 -0.074668676 -0.20050204 -0.2632241 -0.0040746094
0.062302053 -0.15808758 -0.05149104 -0.04434918 -0.016762555 0.02033343 0.009783354 -0.09630622
-0.10821143 -0.027073164 -0.15778783 -0.024834389 0.02293751 -0.013634706 0.008969788 -0.008997652
-0.038510326 -0.04162782 0.016302837 -0.015145605 -0.10605316 -0.08795336 -0.22006747 0.008217519
0.06992886 0.08842393 0.083056964 0.11366613 0.1364097 0.07919439 0.13395411 -0.012945403
-0.011176166 -0.06480375 -0.06539298 -0.13227719 -0.0426216 -0.06530072 -0.0732925 -0.010345421
0.017986186 0.16515139 -0.015425459 0.051770676 -0.063888066 -0.043244984 -0.057877444 0.0044973413
-0.025594674 -0.02623827 -0.058243323 -0.11904355 -0.12101173 -0.07863751 -0.117093734 -0.105210476
-0.009233466 0.14124706 0.0071782004 0.041880377 -0.600903 -0.1897486 -0.2679094 0.16308227
-0.030086646 -0.10793717 -0.015774377 0.13451743 0.16006474 0.1130157 0.05221835 -0.0074022617
-0.08484716 -0.028022338 0.079589136 0.18765852 0.15469335 -0.14538807 0.17439888 -0.023919655
0.03905224 -0.08729938 -0.0062102033 -0.05890574 -0.020997688 0.020665986 0.044513706 0.084655195
0.0042935917 -0.035322927 -0.05670713 -0.00224097 0.011454838 -0.0059876726 -0.20787637 -0.1140745
0.13530615 -0.017050842 0.043690268 -0.021694226 0.1011571 0.014158159 -0.15476514 -0.03073322
-0.13297728 -0.16099785 0.029562883 0.17642063 0.12730566 0.17931937 -0.12890711 -0.38392603
-0.021961268 0.038673863 0.3554988 -0.07151449 0.090283394 0.14386462 -0.054818504 0.011207999
-0.27488905 -0.17159463 -0.24474381 -0.029441664 0.1809767 0.08604256 0.34951162 0.08927336
0.023036433 0.043574587 -0.0044992724 0.012680995 0.14254162 -0.079254024 -0.016649779 0.032012604
-0.036579233 -0.021246668 -0.044632066 -0.116032675 0.030058708 -0.044979464 -0.054114334 -0.01854992
-0.08734345 -0.045636315 -0.015123418 -0.06448081 -0.070145234 0.016441079 -0.07485473 -0.04837412
0.03477589 0.013088304 0.03425923 -0.0072425962 -0.017619925 -0.037208192 0.009794351 -0.03530752
-0.033291258 -0.011808534 0.0063095503 -0.017405396 -0.015695466 -0.045867737 0.01862283 0.04079829

onnx::Conv_39 f4 [8]
00000000: be11 0e3e 5eb3 8a3f 4ea3 ac3e 1573 b63f
00000010: 647e 9a3f 3671 0f40 f079 913e 2828 293f
0.13873956 1.0835989 0.33718342 1.425387 1.2069821 2.2412848 0.28413343 0.660769
