trian/weight/letnet-gray.onnx (onnx, 30782 bytes, 6 tensors)

conv1.weight f4 [16, 8, 1, 1]
00000000: 8c83 183e ded4 a9be 6f94 c7be e3c7 073d
00000010: 7bcc 443e 1c2f 21bd d0f0 c13e bad4 933e
00000020: a71b 19bf 8581 b93e 3e92 cb3d 4ed2 24be
00000030: 4d27 82bd 72e5 15bd d206 09bf a417 1c3e
00000040: c3d8 9dbd e9c6 8dbd f395 7dbe e8ef 9d3e
00000050: 19c5 ef3e ceec 25bf d727 0abe 8d09 8a3b
00000060: bd29 a83e 9887 cbbe cacc 88bf 8943 be3e
00000070: eb2a b23e 09a2 053c e0a6 33bd 468d e5bc
00000080: 05a8 223f 532e f2bd 4a4f 883e 2a12 f23c
00000090: 4ce6 ed3d d67f 80be 28dc 873e 860e 913e
000000a0: a24c d03d 71bd b1be 79e5 9b3e a32f 003e
000000b0: 68b7 593e ad29 823e 9571 b33e 7d4d 08be
000000c0: fe75 983c c909 9d3e 9d43 83be 5396 c93d
000000d0: ef9b 07bc c27d 1a3e ebe9 a0be 2176 e43e
000000e0: c13b b6bd 78cb faba 66d8 eebe 46fa 15be
000000f0: 179b 98bd c22e de3d 8cc0 a6be fa7c a43e
00000100: c940 55be 021e 193d 0ba8 e43e 9c68 3cbd
00000110: 11d7 abbd 94b4 3b3d ba7c d13e e222 89bd
00000120: fffd 1f3f f0d9 bfbd 6d1b 94bd 6502 713e
00000130: 79eb ce3e fd49 16be dc05 733d 9cac fe3d
00000140: f79d f43d 321a cfbe b592 4b3a 3209 9fbc
00000150: 5f61 6abc e7fd 823e 47bf e43e 7834 663e
00000160: 8c1b f33e 2451 f03e b536 40be 6ac1 b73d
00000170: 0d2f a9be 64ed 173c 2b5d 683e 53e5 af3d
00000180: 58b8 aebe 27a1 543e 82ea 79be acfa 73bc
00000190: 7956 ea3e 3c5f 11bd b783 03be ab50 aabd
000001a0: 9ff6 083f daa6 3f3d 66e7 3d3e 11dd b1bd
000001b0: b020 213d 87b9 d83e f5af 88be a1bf 4e3d
000001c0: f047 55be c1de c83e bf07 da3e b9b5 83bd
000001d0: 0321 c4bd 27c7 1f3e 6ba8 813e 680a c23d
000001e0: 3d79 6ebe 09b1 d5bd e8a1 02bf c47c 2f3f
000001f0: b851 2ebc 4851 b13d f60b 0b3e a19b 8c3e
0.14893931 -0.33170217 -0.38980433 0.03314961 0.19218628 -0.039351568 0.37879038 0.28873235
-0.5980782 0.36231628 0.09940003 -0.1609585 -0.06355152 -0.03659577 -0.5352603 0.15243393
-0.0770736 -0.06922705 -0.24764232 0.30847096 0.4683006 -0.6481446 -0.1349176 0.0042125643
0.32844344 -0.39751887 -1.0687497 0.371609 0.3479837 0.008156308 -0.043860316 -0.028021466
0.6353763 -0.11825242 0.26622993 0.029549677 0.11616191 -0.2509753 0.26535153 0.28331393
0.101708665 -0.34714845 0.3044851 0.12518172 0.2126137 0.2542242 0.35047594 -0.1331081
0.01861095 0.30671528 -0.25637522 0.09843125 -0.008276924 0.15087035 -0.31428465 0.44621375
-0.08898116 -0.0019134125 -0.46649474 -0.14646253 -0.07451456 0.10848762 -0.32568777 0.321266
-0.20825495 0.037382133 0.44659457 -0.0459982 -0.0839063 0.04582651 0.4091547 -0.066961065
0.6249694 -0.0936774 -0.072317936 0.2353607 0.40414026 -0.14676662 0.05933176 0.124352664
0.11944192 -0.40449673 0.00077656965 -0.019413564 -0.014305442 0.25584337 0.44677183 0.22480953
0.47481954 0.46936905 -0.18770869 0.08972438 -0.3304371 0.009272907 0.22691791 0.08588662
-0.34125018 0.207646 -0.24405864 -0.014891308 0.45769098 -0.035491213 -0.12843214 -0.083161674
0.53501314 0.04678998 0.18545303 -0.08684743 0.039337814 0.42329046 -0.26696745 0.05047572
-0.20828223 0.39232448 0.42584035 -0.06431145 -0.09576609 0.15603314 0.25323805 0.09474641
-0.23288436 -0.104341574 -0.510283 0.6854975 -0.0106396 0.08658081 0.13578781 0.27462485

conv_head.weight f4 [4, 16, 1, 1]
00000000: 5679 01be 1f2b 72be 39ea 0a3f 6146 d4bd
00000010: 4356 c4bd fba0 a43d 5b24 e8be 7d95 45bf
00000020: 8f54 d13e 7a08 343d d4e2 34be fb96 89be
00000030: 25ce a5be 8b3d 57bd fb04 cebe 737c 823e
00000040: 9e25 fb3d 8c21 ec3d 6046 30be f6c7 aa3e
00000050: 6157 8ebe 63fd 39be d022 9a3e 16cb 0fbb
00000060: 2452 f53b 30c3 fe3c d8f4 d73e 0301 0c3e
00000070: a347 05bf eddc 0ebe c057 a4be f0fe 5dbe
00000080: 8f5e afbd 3fb0 363e b823 d1be 2ee1 11bf
00000090: 404b af3d 2227 7bbe 4ce6 afbd a14c f8bd
000000a0: 2293 043e 47ae 97be 9f6b f13c cab5 8bbc
000000b0: 3273 07be 1e34 8d3d 34a4 af3c 2e27 75be
000000c0: 9025 2cc0 df09 cb3f b5e2 8cc0 8f74 c4bf
000000d0: cc08 97bf 73af a4bf 7a28 28bf 9afd 04bf
000000e0: 545d 8a3f 5340 25c0 ee62 97bf 3b27 39bf
000000f0: 67c4 a4bf 64f5 1ebf e6a5 133f 6b48 2fc0
-0.12643942 -0.23649262 0.54263645 -0.10364986 -0.095867656 0.08038517 -0.45340237 -0.77181226
0.40884826 0.043953396 -0.17664653 -0.26873 -0.32383838 -0.052548926 -0.40238175 0.25485572
0.12263034 0.11529836 -0.17214346 0.33355683 -0.2780104 -0.18163066 0.30104685 -0.0021941117
0.0074865986 0.031098932 0.42178988 0.13672261 -0.52062434 -0.13951464 -0.32098198 -0.21679282
-0.085629575 0.1784067 -0.40847564 -0.5698422 0.08559275 -0.24526647 -0.085888475 -0.12123991
0.12946752 -0.2962515 0.029470263 -0.017054457 -0.13227537 0.06894706 0.021440603 -0.23940727
-2.6897926 1.5862387 -4.402674 -1.5348071 -1.179956 -1.2866043 -0.6568676 -0.51949465
1.0809731 -2.582051 -1.1827066 -0.72325486 -1.2872437 -0.62093186 0.57675016 -2.738795

onnx::Conv_35 f4 [8, 1, 3, 3]
00000000: 6d93 3bc0 acc1 6240 a01a beba 4295 d3c0
00000010: e6cf 5740 02d6 1140 ef3a b2c0 f6dd 6a40
00000020: 5530 0b40 7a1c acbe 8974 b9bd c0ae 89be
00000030: d5a0 6f3f 4641 973f 2760 0c3f dd40 2c3f
00000040: 939f 6d3f 35c1 cf3d 65e6 e63f ad7e 1940
00000050: 7caf 5940 d8ba 3f40 f950 09c0 45d9 14c0
00000060: cace 07c0 7986 43c0 a92d 76bf 66bd 2140
00000070: 7abe 833f 1770 e83e 07de 7cbf 87e6 273f
00000080: 688d 18be 9d28 d33e 12e7 5d3d 07c0 81be
00000090: 3f73 66bf 9eef d23f a56c 0c40 c0b4 383d
000000a0: 93ed a13e 1883 3e3f 6d5a 1ebf 6863 033e
000000b0: 2555 a3bd 2db1 173f edeb 1c3e c8ef b93d
000000c0: 5995 90bd fd04 9abf 4c1d 773f d8c6 0ac0
000000d0: dc34 20c0 166f 7a39 fbbc 8abf 8d9c ecbf
000000e0: ef43 01c0 890e 013d 294e 13bf 83a7 1fbf
000000f0: e65a 713f 66eb b13e 8801 93bc 2d34 8fbf
00000100: 1be6 d33f 8ad7 a5bf 5a00 e2bd c469 13c1
00000110: bd17 b1c0 bcb7 2840 cea6 ca40 bfc8 d240
-2.9308732 3.5430708 -0.0014503784 -6.61197 3.372064 2.278687 -5.569694 3.6697974
2.174825 -0.33615476 -0.090554304 -0.26891136 0.93604785 1.1816795 0.54834217 0.67286474
0.92821616 0.10144273 1.8039061 2.3983567 3.4013357 2.995779 -2.1455672 -2.325761
-2.1219964 -3.0550826 -0.9616342 2.527185 1.0292504 0.45398018 -0.98776287 0.6558613
-0.14897692 0.41241923 0.054175444 -0.25341818 -0.900196 1.6479375 2.1941311 0.04509425
0.31626567 0.74418783 -0.6185673 0.12830889 -0.079752244 0.59254724 0.15324374 0.09078938
-0.07059736 -1.2032772 0.9652908 -2.1683865 -2.5032263 0.0002388324 -1.0838922 -1.8485276
-2.0197713 0.031508002 -0.5754114 -0.6236498 0.94279325 0.34749907 -0.017945066 -1.1187798
1.6554598 -1.2956402 -0.11035223 -9.213322 -5.5341477 2.6362143 6.332862 6.587005

onnx::Conv_36 f4 [8]
00000000: 30f2 203d 8694 afbf 0c8a 383f 4363 c4bf
00000010: 9dba b3bf 9f4e d53f b12b fb3f ea01 2b3d
0.039293468 -1.3717201 0.7208564 -1.5342792 -1.4041325 1.6664618 1.9622709 0.041749872

onnx::Conv_38 f4 [8, 8, 3, 3]
00000000: 6793 8d3d b030 d4bd 0d4b fabd 5b7b 873d
00000010: 6411 b53d 6602 2dbd 0a9c 8b3d eead 9c3d
00000020: abbb 983d f30d 493d 6934 8f3b 9888 01bc
00000030: 8acb 8e3c fa69 e8bd 4c63 0abe 0253 4f3e
00000040: 053b c1bc abd7 14bd 2897 e6bc aa98 4e3c
00000050: ee8b 213e 9037 f03d c2cf 873e 5d6e e13d
00000060: 4bbf 553e b291 f33c 452c 473d 295a b3bc
00000070: f4bd c9bc 62db 8cbd 7691 83bc 39f1 bfbd
00000080: 09a0 f23c 62c8 433d c637 d1bd 9d64 ac3d
00000090: 49ea b6bd fe57 473d 1d22 86bd 47af 0fbc
000000a0: e08c 563d 751e 4f3e e136 15bd 2f5c 623d
000000b0: 81c5 9f3b b07d 28bd 43e0 273e 3ebb 2c3c
000000c0: c8e1 1a3d 3946 cb3d d4d7 7dbb 12a9 05be
000000d0: 15e9 65bc e758 8e3c 7dd2 aa3d abef e83c
000000e0: ea8b b33d aca1 0ebe f1b0 293d c41a 62be
000000f0: 58ed 74bd d125 7d39 6244 41bd d131 98bd
00000100: bbd1 8b3d eec6 c23d 8742 07be 150b 38bd
00000110: 8ed1 6a3d be3d 6c3b 2f33 693d ba13 953c
00000120: 0406 f33c a568 1a3e 29a6 b63e 3715 a3bd
00000130: 9020 b13d d1df 333e 219c 9a3d 38d3 f73d
00000140: e4c0 5f3e 89bf f7bb fafe ec3c f42d 613c
00000150: fc1c acbd 5c0b 213d 3db1 373d 688f 81bb
00000160: 5d60 49bd 22ba 03be a739 94bd da81 37be
00000170: 896f 6abd 58b4 d43c 9838 1bbe 3485 77be
00000180: 686f dc3c cab7 19bd 8296 26be 2066 5f3d
00000190: 6d5f 59bd 1009 ad3d eb22 e9bc 4380 013d
000001a0: 6d38 b2bd 562c 9c3d 515d 8bbb f349 6a3c
000001b0: 45b9 033e f2c4 7b3d 88b5 113e a8cd bf3c
000001c0: e614 debd c27e 8dbd 1622 dc3c 5037 3abd
000001d0: 5caf 18bc f820 99bd ac1e b1bd dba5 dbbd
000001e0: b1b7 27bd ff84 983d b2f3 6ebd 3d71 30bb
000001f0: 0341 9a3d b4df 093e 8d47 8abc 8490 7bbd
00000200: 8a82 8ebe 2a94 463d de38 a43d effc b7bd
00000210: cfe3 883d f077 983d 6bb5 0d3d a6fd cf3c
00000220: 0cc0 83bd a5a7 50be 81d1 e13d 80c0 84bd
00000230: 01d1 52be 0af5 483d a1fe 14bd 9d1e e5bd
00000240: 8293 b0bc ac27 b83d f965 da3d eb71 853d
00000250: 8c60 533c 5bc3 e43c 6471 37be d2bb 8fbe
00000260: 11c1 1bbe deaa 0f3e e768 a0bd f449 48bd
00000270: 0791 f6bd f511 6c3e 7eda bebd d942 d83d
00000280: fa5f ac3c ba08 683e 97ee babd fd49 8cbd
00000290: 38a7 1ebe af88 90be 78ba e8be a636 d1bd
000002a0: a633 93be a664 46be 82e2 07be 02ec 89bd
000002b0: 355e cebd 6b06 393d 7290 223d 37b8 d4bd
000002c0: 0010 593d dd95 60bd 5609 80bd a6cb 7bbb
000002d0: 1746 bebc 4068 00be ae94 1ebe 63e2 0c3b
000002e0: 4758 233d ed7b bdbc 9c5d e73d 5bf6 bf3d
000002f0: f2ab 7d3d 9df1 0c3e d79a 733d a653 edbd
00000300: 5fd6 44bd b15f 3dbe 8017 04be d141 653d
00000310: 2bbf c03c 68f7 033c 8032 0b3e 275a a6bd
00000320: fc8b b03d 30e5 a5bc ee94 113d 43f3 dd3c
00000330: 6a63 1b3d 901c 14be 48eb c93d d883 623e
00000340: 4fcc f63d 0b8e 4b3d 4b03 833e 3262 333e
00000350: 5687 003e 77a3 603e b102 1c3c ccc1 183e
00000360: fec7 0bbd 5476 973d aeec 743c a39f db3b
00000370: 0102 163d 600f 523c 3d9c a8bd b216 b0bd
00000380: 1367 47bd 6df5 c13d e9ba 80bd 59b9 e8bd
00000390: 3360 503e 8b52 893d 7f6a 103e dfdf b03d
000003a0: b828 413d d480 d1bd c912 2abd 7780 4dbc
000003b0: a119 c43c f432 8abd be8d ebbc 301d 393d
000003c0: 01d1 eabd 2a7f 81be 9d05 3dbe e1c8 e0bb
000003d0: a6aa a0bd 40f2 ebbd 0ef5 d13b be69 13be
000003e0: 5211 eabd b002 e6bb 3fba 6abd 251b ca3c
000003f0: d75f 9b3d 6bf0 d03c 26d1 8cbd 9e2a 083e
0.069128804 -0.10360849 -0.12221346 0.06615325 0.088412076 -0.042238615 0.068168715 0.07650362
0.0745767 0.04908557 0.0043702614 -0.007906102 0.01743104 -0.113483384 -0.13514441 0.20246509
-0.023587713 -0.03633849 -0.028148249 0.01260964 0.15776035 0.11729348 0.26525694 0.11007378
0.20873754 0.029732559 0.048626203 -0.021893578 -0.02462671 -0.068777815 -0.016060572 -0.093721814
0.029617326 0.04779852 -0.10215716 0.08417628 -0.08931405 0.0486679 -0.06549475 -0.008769817
0.052380443 0.20226462 -0.03642929 0.055263694 0.004875839 -0.04113549 0.16394143 0.010542689
0.037812978 0.09925503 -0.003873338 -0.13052776 -0.014032622 0.017376376 0.08340929 0.028434595
0.08766921 -0.1392886 0.04142851 -0.22080523 -0.05979666 0.00024142048 -0.047184356 -0.07431377
0.06827112 0.09510599 -0.13208972 -0.044932444 0.057328753 0.0036047543 0.056933578 0.018197883
0.029665954 0.15078981 0.35673645 -0.07963031 0.08648789 0.17565848 0.075493105 0.12100834
0.21850926 -0.0075606746 0.028930176 0.013743866 -0.08403966 0.039317474 0.044846762 -0.003953863
-0.049164165 -0.12863973 -0.07237559 -0.17920628 -0.057235274 0.0259649 -0.15158308 -0.24171907
0.026908591 -0.03752879 -0.16268352 0.054540753 -0.05306952 0.08448994 -0.028459033 0.03161646
-0.087021686 0.07625644 -0.0042530675 0.014299857 0.12863643 0.06146712 0.14229405 0.023413494
-0.1084383 -0.06908943 0.026871722 -0.045462906 -0.009319153 -0.074769914 -0.08648428 -0.10724994
-0.040946666 0.07447242 -0.058337875 -0.0026922964 0.07531931 0.13464242 -0.016879821 -0.061417118
-0.27833968 0.048481144 0.08018659 -0.0898379 0.06684076 0.07444751 0.03459684 0.025389504
-0.064331144 -0.20376451 0.11026288 -0.06482029 -0.20587541 0.049061812 -0.036375646 -0.1118748
-0.021554712 0.08991942 0.10663981 0.06515869 0.012901437 0.027925184 -0.17914349 -0.28072983
-0.15210368 0.14030024 -0.078325085 -0.048898652 -0.120393805 0.23053725 -0.09319018 0.10559625
0.021041859 0.22659579 -0.09127539 -0.0685005 -0.15493476 -0.2822928 -0.45454764 -0.102155015
-0.28750342 -0.19374332 -0.1327 -0.06734468 -0.10076562 0.045172136 0.039688535 -0.10386699
0.052993774 -0.05483042 -0.06251781 -0.0038420944 -0.02322678 -0.12539768 -0.15486404 0.0021497242
0.03987911 -0.023130381 0.112971514 0.093731605 0.061931558 0.13764043 0.05947384 -0.1158822
-0.048056003 -0.18493535 -0.1289959 0.05597097 0.023528656 0.008054592 0.13593483 -0.08122664
0.0862045 -0.020250887 0.03554242 0.027093535 0.037936606 -0.1446402 0.098593295 0.22120607
0.120506875 0.04969601 0.2558845 0.17517927 0.12551627 0.21937357 0.009522126 0.14917678
-0.034126274 0.07395616 0.014949007 0.00670238 0.036623005 0.0128210485 -0.08232925 -0.08598079
-0.048682284 0.094706394 -0.0628565 -0.11363477 0.20349197 0.06705197 0.14103125 0.0863645
0.047157973 -0.1022965 -0.04152182 -0.012542835 0.023938002 -0.06748 -0.028754111 0.04519385
-0.114656456 -0.2529233 -0.18459173 -0.006859884 -0.078450486 -0.11520815 0.0064073866 -0.14395806
-0.11429085 -0.0070193633 -0.057306524 0.024671147 0.075866394 0.025505265 -0.068758294 0.13297507

onnx::Conv_39 f4 [8]
00000000: 788e 133f fc5d aa3f 6652 c23f e8ac d03f
00000010: bee3 e03f 0df4 32bf 488b 173e 61c7 ca3e
0.57639265 1.3309932 1.5181396 1.6302767 1.7569501 -0.6990364 0.14799225 0.3960524
